ilikepaintings/weights/VAPS999/RN101.pth (torch, 3039 bytes, 1 tensors)

weight f4 [1, 512]
0	0xbd58e3e1	-0.052951697
1	0x3e2bc8eb	0.16775863
2	0xbe55b46d	-0.20869608
3	0x3e916efe	0.28404993
4	0x3e373020	0.17889452
5	0xbf066238	-0.5249362
6	0xbea8abfa	-0.32943708
7	0x3e7c163b	0.24617855
8	0x3eb71c82	0.35763937
9	0xbe7ff03b	-0.24993984
10	0xbe4e6c3f	-0.2015848
11	0xbd4ed019	-0.050491426
12	0xbebb1630	-0.36540365
13	0xbc32e05f	-0.010917752
14	0x3f2d313b	0.67653245
15	0xbf139c88	-0.5766072
16	0x3dd1cb6c	0.10243878
17	0x3e98b54f	0.29825827
18	0xbeaa2a93	-0.33235607
19	0xbf7bb816	-0.9832777
20	0x3f73756e	0.9510106
21	0x3dc4289d	0.09578059
22	0xbe951a28	-0.29121518
23	0xbd95bcd9	-0.073114105
24	0xbc02be97	-0.0079800105
25	0xbe4afe19	-0.19823493
26	0xbe8448e1	-0.25836852
27	0xbf01947a	-0.5061718
28	0xbea12165	-0.3147079
29	0xbe617a26	-0.22019252
30	0x3dbdea97	0.0927326
31	0xbd464957	-0.048409786
32	0x3e83442e	0.25637954
33	0xbe32ac9d	-0.17448659
34	0x3ea54deb	0.3228601
35	0xbea9904d	-0.33117905
36	0x3e84bb9d	0.25924388
37	0x3f1e8804	0.61926293
38	0xbe26c144	-0.16284662
39	0x39a1a043	0.00030827717
40	0x3f429400	0.7600708
41	0xbe3dffce	-0.18554613
42	0x3e258488	0.16163838
43	0xbbd90475	-0.006622846
44	0xbeceac80	-0.40365982
45	0x3df99092	0.12185778
46	0x3e933059	0.28747824
47	0xbe31634a	-0.17323032
48	0x3ce8962d	0.028391922
49	0x3f130fee	0.5744618
50	0x3f19eb67	0.6012482
51	0xbf26786e	-0.6502751
52	0xbe01eea5	-0.12688692
53	0xbf6e782a	-0.93152106
54	0x3e1e8579	0.15480603
55	0x3f285de3	0.6576826
56	0xbd6c71f5	-0.057725865
57	0xbf0db64a	-0.55356276
58	0xbb2a8689	-0.002602013
59	0xbe0ea102	-0.13928607
60	0x3e0cd940	0.1375475
61	0x3e8c0a4b	0.27351603
62	0x3e352a89	0.17692007
63	0x3ec712b8	0.3888147
64	0xbe38d764	-0.18050915
65	0xbe4bf131	-0.19916226
66	0x3c2c2b44	0.010508362
67	0x3dd7b4f5	0.10532562
68	0xbe9a87ca	-0.30181724
69	0xbe873734	-0.26409304
70	0xbe81943a	-0.253084
71	0xbd886a33	-0.06660881
72	0xbdd0376f	-0.10166823
73	0xbf2b67b6	-0.66955125
74	0x3e64db7e	0.22349355
75	0x3f2e4da3	0.68087214
76	0x3e22078c	0.15823191
77	0x3e292119	0.16516532
78	0x3ee0b616	0.4388892
79	0xbc4c82ea	-0.012482384
80	0x3dcc42da	0.099736884
81	0x3d9dd6d9	0.077069946
82	0x3ec35714	0.38152373
83	0xbf1d7a24	-0.61514497
84	0x3e2e4eb3	0.17022209
85	0x3ea519b9	0.32246187
86	0x3f2b90b5	0.6701768
87	0x3d21f435	0.039539535
88	0xbf4c6579	-0.79842335
89	0x3f0250dd	0.5090464
90	0xbf148801	-0.58020025
91	0xbd8999b2	-0.06718768
92	0xbf977d2f	-1.1835078
93	0x3ea407ea	0.32037288
94	0xbf0c5ec7	-0.5483212
95	0xbd2cc5d7	-0.042180862
96	0xbed6db58	-0.4196422
97	0xbe9f69ba	-0.3113535
98	0x3f8e31d0	1.1108952
99	0xbe5fe9bc	-0.21866506
100	0xbe831bb1	-0.25607064
101	0xbec784a8	-0.38968396
102	0x3e555f44	0.20837122
103	0x3d0d2296	0.03445681
104	0x3dbfd64f	0.09367048
105	0x3e2e4b7a	0.1702098
106	0x3cb66949	0.022267
107	0x3e3c4a99	0.18387832
108	0x3ee2359f	0.44181535
109	0xbf072e85	-0.5280536
110	0x3ecee3c0	0.40408134
111	0x3e537bfe	0.20652768
112	0x3db11b00	0.08647728
113	0xbc9107ca	-0.01770391
114	0x3ee1fec9	0.44139698
115	0x3d55fab8	0.052241057
116	0x3d6f0cde	0.05836188
117	0x3f40f457	0.75372833
118	0xbe414f83	-0.18877988
119	0x3b2cf77f	0.0026392636
120	0xbd36d84a	-0.044639863
121	0xbf3f7f5e	-0.7480372
122	0xbdc7ae07	-0.0974999
123	0x3db4b088	0.08822733
124	0x3f3b2618	0.73105
125	0xbeba2d5b	-0.36362728
126	0xbe96e3c0	-0.29470634
127	0x3deba201	0.11505509
128	0xbf28cfc5	-0.6594203
129	0x3d3aaf91	0.04557759
130	0x3f5078ab	0.81434125
131	0xbdc01be3	-0.09380319
132	0xbd9fff43	-0.07812359
133	0x3ea6fe6f	0.32615992
134	0x3eb69123	0.35657606
135	0x3e4f2846	0.20230207
136	0x3e744b6f	0.238569
137	0xbf6a0d58	-0.9142661
138	0x3eb2a8b7	0.34894344
139	0x3f84d512	1.0377524
140	0x3e8ab2dd	0.27089587
141	0xbf351c83	-0.7074663
142	0xbe9d7747	-0.30755064
143	0xbede2cd6	-0.43393582
144	0x3e1121a4	0.14172989
145	0x3e38f752	0.18063095
146	0xbd77f1a2	-0.060533173
147	0xbe2af3b5	-0.1669453
148	0x3e80adec	0.25132692
149	0x3f381381	0.7190476
150	0xbdd85ff8	-0.105651796
151	0x3eb88a33	0.36042938
152	0x3ec54ef6	0.38536805
153	0xbf0baf0e	-0.5456399
154	0x3ebce8ca	0.36896354
155	0xbe630158	-0.22168481
156	0xbcabd216	-0.0209742
157	0x3e9097fb	0.28240952
158	0xbe4936a4	-0.1964975
159	0xbe13abac	-0.14420956
160	0xbe85d02b	-0.26135382
161	0x3d310815	0.0432206
162	0xbed03bbc	-0.40670574
163	0xbe82a624	-0.2551738
164	0xbda9cd79	-0.08291144
165	0xbf13c711	-0.57725626
166	0xbca4dc65	-0.020124624
167	0xbe089dde	-0.13341472
168	0x3ee2db16	0.44307774
169	0x3f05b2ab	0.5222575
170	0xbdedaf69	-0.116057225
171	0x3b2971ce	0.0025855186
172	0x3dadbedc	0.08483669
173	0xbd80f7da	-0.06297274
174	0x3f532fb4	0.82494664
175	0x3e128339	0.1430787
176	0x3ea912de	0.33022207
177	0xbecdd228	-0.401994
178	0x3e729a3c	0.23691648
179	0xbe89b804	-0.26898205
180	0xbe9c42bf	-0.30519673
181	0x3f109a32	0.56485283
182	0x3b934435	0.004494215
183	0xbf3074ef	-0.68928427
184	0x3d81ea12	0.063434735
185	0xbe579fdd	-0.21057077
186	0xbe2780b8	-0.16357696
187	0x3ec0a8c5	0.3762876
188	0xbdaeb393	-0.08530345
189	0x3e9e296c	0.30890977
190	0x3e27080a	0.1631166
191	0x3ec61499	0.3868759
192	0x3e7715a6	0.24129352
193	0x3e98ef7f	0.2987022
194	0xbe13cd51	-0.1443379
195	0xbe95b167	-0.2923691
196	0xbf0925f7	-0.53573555
197	0x3e80f854	0.2518946
198	0x3e229c90	0.15880036
199	0xbe4a0920	-0.19730043
200	0xbfa93648	-1.321969
201	0x3e90c4ce	0.2827515
202	0x3e02f394	0.1278823
203	0x3e283992	0.16428211
204	0xbe820b40	-0.25399208
205	0x3e49f9f6	0.19724259
206	0x3eaa6d1e	0.33286375
207	0x3ebd9d20	0.3703394
208	0x3f008177	0.5019755
209	0xbe55339c	-0.20820469
210	0x3eb08376	0.34475297
211	0x3ed8ef27	0.4236996
212	0xbde790c2	-0.11306907
213	0xbe59d8b0	-0.21274066
214	0xbe1f4fee	-0.15557835
215	0x3a562b9f	0.0008169952
216	0x3f0b398a	0.5438467
217	0x3f050cd1	0.5197268
218	0xbe8268c2	-0.2547055
219	0x3dedb866	0.11607437
220	0x3e2a43c7	0.16627418
221	0xbe19daec	-0.15024918
222	0xbf1db39f	-0.61602205
223	0xbe27a71c	-0.16372341
224	0xbe4d9be8	-0.20079005
225	0xbe5aae88	-0.21355641
226	0xbf3fbb06	-0.7489475
227	0xbf1590af	-0.58423895
228	0xbe3d751d	-0.18501706
229	0x3e0dbce4	0.13841587
230	0x3e5b0589	0.2138883
231	0xbe89013d	-0.26758757
232	0xbf117dfe	-0.56832874
233	0x3de926ea	0.113843754
234	0xbe88d05c	-0.26721466
235	0xbe5b77c1	-0.21432401
236	0x3c068a9c	0.008211758
237	0xbd1be486	-0.038059734
238	0xbe27594e	-0.16342661
239	0x3e409758	0.18807733
240	0x3efd7a61	0.4950743
241	0xbf1a62a6	-0.60306776
242	0xbe7f6467	-0.24940644
243	0x3d23eb6d	0.04001944
244	0x3f593746	0.84849966
245	0x3e0f2a05	0.13980873
246	0xbe13248d	-0.14369412
247	0xbe53f6fa	-0.20699683
248	0xbf862af6	-1.0481861
249	0x3e6cfd31	0.2314346
250	0xbe55b639	-0.20870294
251	0xbf8d6cd0	-1.1048832
252	0x3f592694	0.8482449
253	0xbdd16bee	-0.10225664
254	0x3e761030	0.24029613
255	0x3e917b45	0.2841436
