ilikepaintings/weights/VAPS999/RN50x16.pth (torch, 4071 bytes, 1 tensors)

weight f4 [1, 768]
0	0x3e002eab	0.12517802
1	0x3cca6495	0.024706164
2	0xbecae439	-0.39627245
3	0xbdccdee8	-0.100034535
4	0x3bfa80fb	0.00764477
5	0xbd73cec2	-0.05952335
6	0x3e9a01f0	0.30079603
7	0xbeacfd31	-0.3378692
8	0xbeffb58e	-0.49943203
9	0x3c4503a7	0.012024797
10	0x3e46f55a	0.19429532
11	0xbdaf21e0	-0.08551383
12	0x3e7d127a	0.2471408
13	0xbf1440a1	-0.57911116
14	0x3e396d77	0.18108164
15	0xbd9e4819	-0.07728595
16	0xbe672489	-0.22572531
17	0xbebd3af4	-0.3695904
18	0x3f056e6c	0.52121615
19	0x3f2553b3	0.6458084
20	0xbe1e3087	-0.15448199
21	0x3f0d56ec	0.5521076
22	0xbe1c0c1e	-0.15238997
23	0xbd2cfbe8	-0.042232424
24	0x3dd79636	0.10526697
25	0xbee1d6a1	-0.4410906
26	0xbcca7fb5	-0.024719099
27	0xbe31d83e	-0.17367646
28	0x3cbc297c	0.022969
29	0x3d9dab95	0.07698742
30	0xbe127dce	-0.14305803
31	0x3ec0aef1	0.3763347
32	0xbe31b80d	-0.17355366
33	0x3ef6f76a	0.48235637
34	0x3e271f10	0.16320443
35	0xbec7862f	-0.3896956
36	0xbe3297ce	-0.17440721
37	0xbf46767a	-0.7752453
38	0xbd26ba57	-0.04070505
39	0x3d1e0e7c	0.038588032
40	0xbe49190a	-0.19638458
41	0x3ee77a37	0.4521043
42	0xbeac741b	-0.3368233
43	0xbe817fc3	-0.25292787
44	0x3f4cf6f3	0.80064315
45	0xbc1b53f7	-0.009480468
46	0x3e419a38	0.18906486
47	0xbf13cddd	-0.57736
48	0x3ddbee6d	0.107388355
49	0x3d8d3946	0.0689569
50	0x3e8763df	0.26443383
51	0xbebf053c	-0.3730868
52	0x3db5c604	0.08875659
53	0x3ec85318	0.39125896
54	0x3e1b5d8b	0.15172403
55	0xbd73c8c1	-0.059517626
56	0xbebd1339	-0.36928728
57	0xbddbf665	-0.107403554
58	0xbe5f6c34	-0.2181862
59	0x3da95800	0.08268738
60	0x3cff112d	0.03113612
61	0xbed3fffb	-0.41406235
62	0xbd26f02f	-0.0407564
63	0x3dc39b0b	0.095510565
64	0xbe790900	-0.2431984
65	0xbde4a6b5	-0.11164609
66	0xbdfeaf1a	-0.12435742
67	0x3e8f2bb9	0.27963045
68	0x3f5fba25	0.8739341
69	0x3e02bb6e	0.12766811
70	0xbe8f1fd0	-0.2795396
71	0x3f1d6c86	0.6149372
72	0x3f2201af	0.6328382
73	0x3b09f190	0.0021048523
74	0xbd4a230d	-0.049349833
75	0x3e198cef	0.14995168
76	0xbcf527e0	-0.02992624
77	0xbe804b79	-0.2505758
78	0x3e8cc77a	0.2749594
79	0xbe9f5af8	-0.3112409
80	0xbe74590e	-0.23862097
81	0xbe53a482	-0.20668224
82	0xbdff3619	-0.1246149
83	0xbe11bbab	-0.14231746
84	0xbe7efa77	-0.24900232
85	0xbdd55bca	-0.10417898
86	0x3db2c3bd	0.0872874
87	0xbdf66095	-0.1203014
88	0xbe942a46	-0.28938502
89	0xbe00acb2	-0.12565878
90	0xbea42524	-0.32059586
91	0xbed2c3c0	-0.4116497
92	0xbda67551	-0.08127845
93	0x3d710634	0.058843806
94	0xbd86ae5d	-0.06576226
95	0x3e5f66ed	0.21816607
96	0xbe0bb6d0	-0.13643956
97	0xbea07fa4	-0.31347382
98	0x3e84cbd1	0.2593675
99	0xbd0a2471	-0.03372616
100	0xbf15ff82	-0.58593
101	0xbe5be336	-0.21473393
102	0x3d7e8526	0.0621387
103	0x3ec2730c	0.379784
104	0x3db8b6ce	0.09019242
105	0x3d6eed38	0.0583317
106	0x3dcf42c4	0.101201564
107	0xbdaaa9b3	-0.08333149
108	0x3eab694e	0.3347878
109	0xbcebc967	-0.02878256
110	0xbcf8547f	-0.030313728
111	0x3ec6b59a	0.38810426
112	0xbec705bd	-0.38871565
113	0x3d3d0444	0.046146646
114	0xbe173804	-0.14767462
115	0xbe4b8653	-0.1987546
116	0x3c24f4b4	0.010068107
117	0x3eb42581	0.35184863
118	0x3dba4183	0.090945266
119	0x3e15d531	0.14632107
120	0x3e8397ca	0.25701743
121	0x3ebf8730	0.37407827
122	0xbe4d7381	-0.20063592
123	0x3e0887ce	0.13333055
124	0x3e43942b	0.1909949
125	0xbde18824	-0.11012295
126	0xbde30e85	-0.11086754
127	0x3eaeb214	0.34120238
128	0x3e8a01d9	0.26954535
129	0xbeb4170c	-0.35173833
130	0x3d1a1400	0.03761673
131	0xbcfd17e7	-0.030895187
132	0xbec6fd87	-0.388653
133	0xbe113294	-0.1417945
134	0x3e01a1e1	0.12659408
135	0x3cedcd0d	0.02902844
136	0x3e1ef1d2	0.15521935
137	0x3dfcffe8	0.12353498
138	0xbe8a2f3e	-0.26989168
139	0x3d490b6a	0.04908315
140	0x3ef24790	0.47320223
141	0xbe902ca9	-0.28159073
142	0x3d5d427c	0.054018483
143	0xbeaee8df	-0.34162042
144	0xbdba5c1c	-0.090996
145	0x3e6f030e	0.23341009
146	0x3c44813f	0.011993705
147	0x3db76d45	0.089563884
148	0xbe5a1317	-0.21296345
149	0x3e35ee11	0.17766596
150	0x3f10cefa	0.5656582
151	0xbd3535f4	-0.044240907
152	0xbda8d6b3	-0.082440756
153	0x3be74af9	0.007058498
154	0xbe5fe10e	-0.21863195
155	0xbe9868dc	-0.297675
156	0x3e531a8b	0.20615594
157	0x3e5642f9	0.20923986
158	0x3cef17b0	0.0291861
159	0x3eb7383e	0.35785097
160	0x3e9de6f8	0.30840278
161	0x3e69b3f6	0.22822556
162	0xbe035dd2	-0.12828758
163	0xbdbc7f70	-0.09203994
164	0x3d172ab3	0.036905956
165	0x3ec17f0d	0.37792245
166	0xbe93517f	-0.28773114
167	0x3d4db404	0.050220504
168	0xbeaa5acf	-0.33272406
169	0xbf51da36	-0.8197359
170	0x3e45ec34	0.19328386
171	0xbe821065	-0.25403133
172	0xbe7748d5	-0.24148877
173	0xbdc3dbbc	-0.095633954
174	0x3c2cfd89	0.010558494
175	0x3e8eae8e	0.2786755
176	0xbd99845d	-0.074959494
177	0xbdb9e72e	-0.09077297
178	0xbd519925	-0.05117144
179	0xbe750887	-0.23929034
180	0xbe11103b	-0.14166348
181	0x3dd972d2	0.10617603
182	0x3de09d52	0.109675065
183	0x3dc23606	0.094829604
184	0x3e3920c8	0.18078911
185	0xbdde7d11	-0.10863698
186	0x3c1e1c07	0.009650237
187	0x3da2a25c	0.07941124
188	0xbf17f8f0	-0.59364223
189	0xbe6b9a93	-0.23008184
190	0xbe0dbb03	-0.1384087
191	0xbf01a45d	-0.50641423
192	0xbe928cdb	-0.2862309
193	0xbecb615a	-0.3972271
194	0x3e96a59d	0.29423228
195	0x3ddc3de7	0.107539944
196	0xbef2df24	-0.47435868
197	0xbed71664	-0.4200927
198	0xbe8ebab0	-0.27876806
199	0x3e8f7da9	0.2802556
200	0x3a72a653	0.00092563516
201	0x3ec8c51e	0.39212888
202	0x3da954fd	0.08268163
203	0x3de88b1c	0.11354658
204	0x3e0bc314	0.13648635
205	0xbf06515a	-0.5246788
206	0x3c218fc4	0.009860937
207	0xbecc8932	-0.39948422
208	0xbe808a7d	-0.25105658
209	0xbe4bf192	-0.1991637
210	0xbbe7cf54	-0.007074276
211	0x3dcafdee	0.099117145
212	0x3d3ceeae	0.04612606
213	0x3d89f80d	0.06736765
214	0xbdfe5106	-0.12417798
215	0x3f38269c	0.71933913
216	0xbead4085	-0.33838287
217	0xbf1dc21f	-0.6162433
218	0xbd3d5dbf	-0.04623198
219	0x3e58b021	0.21160938
220	0x3d166026	0.036712788
221	0x3c118579	0.00888192
222	0xbd37a909	-0.04483894
223	0xbde09a14	-0.10966888
224	0x3d5144f4	0.05109115
225	0x3dff6869	0.124710865
226	0x3e990d35	0.2989289
227	0xbcbf19e1	-0.02332777
228	0x3e6031e2	0.21894029
229	0x3dd086e2	0.10181977
230	0xbe88eae5	-0.2674171
231	0xbe3f804d	-0.18701287
232	0xbe6b91e8	-0.23004878
233	0xbda8806c	-0.082276195
234	0x3dad0c41	0.08449603
235	0x3e884489	0.26614788
236	0xbc845e41	-0.016158225
237	0x3dad0e53	0.08449998
238	0xbe0ecb3e	-0.13944718
239	0xbdf6f7b6	-0.12058966
240	0x3e9007b1	0.28130868
241	0x3d990465	0.07471541
242	0xbd0aa2b8	-0.033846587
243	0x3e5a69d9	0.2132944
244	0x3f040384	0.51567864
245	0x3ec1ba28	0.37837338
246	0xbd6c5e46	-0.057707094
247	0xbe3d1798	-0.18466032
248	0x3d839e16	0.06426637
249	0xbe39d0e4	-0.18146092
250	0xbe2882e7	-0.16456185
251	0x3e8aada7	0.2708561
252	0xbe1dd571	-0.15413453
253	0xbe1f22bb	-0.15540592
254	0x3e916ecf	0.28404853
255	0xbda5bedb	-0.080930434
