ilikepaintings/weights/VAPS999/RN50x64.pth (torch, 5095 bytes, 1 tensors)

weight f4 [1, 1024]
000000 82 8f a3 3d 62 c9 8b be b2 3e 9b bd 94 0a 06 3e
       0.07986356 -0.2730208 -0.075803176 0.13089973
000010 7b eb 43 3c 7f f8 ab 3d 15 6c 07 be 29 a3 de bd
       0.011957998 0.08397006 -0.13224824 -0.10870964
000020 ac f2 fb bd 7c 1f 28 be 3f 5b e3 bd 92 a8 7a bd
       -0.12302145 -0.1641826 -0.11101388 -0.061195917
000030 49 6f 3c 3e f0 96 d4 bd 9b b1 83 be 98 ed 81 bd
       0.18401827 -0.103803515 -0.2572144 -0.063441455
000040 1a 44 2e be 18 17 59 3d 08 e8 15 3e 32 0e 84 bd
       -0.17018166 0.05300054 0.14639294 -0.0644802
000050 40 af f1 ba 39 86 8c be e1 e4 6c be 48 bb 90 bd
       -0.0018439069 -0.27446154 -0.23134185 -0.07066971
000060 b0 4d b0 bd 5b 60 84 3d 17 23 50 3e 08 82 55 3e
       -0.08608568 0.06463691 0.20325886 0.20850384
000070 59 4c a2 3c 42 4b 21 3d 91 93 73 be 45 96 be 3e
       0.019811796 0.039378412 -0.23786761 0.37224022
000080 a8 4b 94 3e de 53 62 be b2 3f ad 3e ed 9e 15 be
       0.2896397 -0.22102305 0.33837658 -0.14611407
000090 c0 9f 2f bd dd 77 da bd 43 af e3 bd 18 77 fe 3c
       -0.04287696 -0.10667393 -0.11117413 0.031062648
0000a0 fe 2b e0 3e f8 4b aa 3e b1 a5 de 3a 19 00 d2 be
       0.43783563 0.33261085 0.0016986636 -0.410157
0000b0 dd 99 12 3e 5f e3 8b be 10 35 b1 be 77 94 ec 3c
       0.14316507 -0.27321908 -0.34610796 0.028879387
0000c0 25 6a 34 3e 34 3a 8b 3d ee c8 b9 3d fb ea af be
       0.17618616 0.06798211 0.090715274 -0.34358963
0000d0 b6 cc b4 3e 8a 4d 04 be 6a f5 cb bb a9 82 16 3f
       0.35312432 -0.12920204 -0.006224324 0.5879312
0000e0 9e 19 cc 3c f3 dc 5a 3d 4e 6b 74 3d 34 3e 1d be
       0.024914559 0.05343337 0.059672646 -0.1535576
0000f0 02 08 16 bf e5 ba 5f 3e 2e 49 f4 be 29 38 cd bd
       -0.5860597 0.21848638 -0.47712082 -0.10020477
000100 b4 f1 92 be 8a d5 78 3e 79 b1 0a 3f 04 e3 92 bd
       -0.2870003 0.24300209 0.5417705 -0.07172206
000110 04 65 99 3c d1 ae 8f 3d 2e 99 d4 3d fa 65 16 3e
       0.018724926 0.070157655 0.10380779 0.14687338
000120 6e 6a 31 bd 19 53 6f 3e 24 26 53 3e fd 2c f0 3d
       -0.04331439 0.23371543 0.20620018 0.11727331
000130 10 9f 29 3f ef 80 b4 be 39 ab 83 bd 2b 00 e9 be
       0.66258335 -0.3525462 -0.064291425 -0.4550794
000140 86 4d c2 bc 53 6d 59 3e 99 8b 22 be f9 06 5d 3e
       -0.023718607 0.2123311 -0.15873565 0.21584691
000150 e5 2e c5 3d f4 76 2d be 2f 82 b1 be 7e 8f 2f 3e
       0.09628085 -0.16939908 -0.34669635 0.17144582
000160 f8 25 31 bd fc 75 80 3e 19 0e b3 3e c7 4b a3 3c
       -0.0432491 0.25090015 0.34971693 0.019933594
000170 ac bb 3e 3e de 21 e6 3e ab 03 73 3e b7 fb 43 3e
       0.18626279 0.44947714 0.23731868 0.1913899
000180 e3 6e 5d 3e ad 66 d6 bd 20 29 9e be 32 11 03 be
       0.21624331 -0.104688026 -0.3089075 -0.12799528
000190 48 80 ce bd 3d eb 81 be bb cd 12 3d 52 7b 2d 3e
       -0.100830615 -0.25374785 0.03584073 0.16941574
0001a0 07 c8 eb 3d 12 46 1d 3e 90 c8 8d bc 61 d5 af bd
       0.115127616 0.15358761 -0.01730755 -0.08585621
0001b0 18 42 b7 bd 23 21 42 be 4f e1 c7 3d 0e 34 8e bd
       -0.08948153 -0.18957953 0.09759771 -0.069435224
0001c0 99 4a 3d be 7a d9 a9 3e 6e 4c d5 bd e5 72 b4 bd
       -0.18485488 0.33173734 -0.104149684 -0.08810977
0001d0 17 23 7e 3e 97 53 f0 be d9 4b 1b 3e 05 ce dd bc
       0.24818073 -0.46938774 0.15165652 -0.027075777
0001e0 31 94 ae 3d bf 1a 87 3d 07 c6 21 3e df a7 91 3e
       0.08524359 0.06596898 0.15798198 0.28448388
0001f0 eb 2c 22 be 35 63 dc bd 57 49 a7 3d 10 22 73 bd
       -0.15837447 -0.1076111 0.08168285 -0.059358656
000200 8b e0 f3 3d 03 59 9f bd 35 b9 2b 3e 25 b0 59 3c
       0.119080625 -0.077806495 0.1676987 0.013286625
000210 1f c1 71 3d 37 b4 27 3e 59 4f 88 3e 42 2a 25 3e
       0.059022065 0.1637734 0.26623037 0.16129401
000220 6e b5 3e 3d b3 9b 3b be 24 ba b2 bd 7c 76 dd bd
       0.046559744 -0.18321113 -0.0872691 -0.10813615
000230 a7 9a 6c bd 35 32 c0 bc c0 f4 23 bc 8e 69 e6 3d
       -0.057764675 -0.02346144 -0.010007083 0.11250602
000240 54 c9 cb 3d 33 98 62 3d b4 0a 39 be 4a 90 bb bd
       0.0995051 0.05532093 -0.18070489 -0.0915838
000250 f8 25 05 be f2 c1 60 3c 44 f5 84 be 32 13 88 be
       -0.13002765 0.013718115 -0.25968373 -0.26577145
000260 46 d7 d4 be c4 81 dc bd 32 d3 15 be 2d 34 89 be
       -0.4157049 -0.10766938 -0.14631346 -0.2679762
000270 63 c2 a2 be b8 56 91 3e bf 38 1a bd 00 d4 00 3e
       -0.3178893 0.28386474 -0.037651774 0.12580872
000280 f0 7c 63 bd 93 b3 e8 3c 87 de 5a 3e 0f 50 fa bd
       -0.05553907 0.02840594 0.2137395 -0.12222301
000290 dd 5c 7b 3d af 4f f7 3d 82 6b 45 bd d4 5f 8d bd
       0.06136786 0.12075745 -0.04819823 -0.069030434
0002a0 f6 0c 9d be 6f 33 9a 3e 77 0c e2 3c 31 c8 83 3d
       -0.3067395 0.30117366 0.027593834 0.06434668
0002b0 f7 a9 80 bc 02 5e ea 3d 0a b6 02 3d 51 a8 60 3e
       -0.015706046 0.11443712 0.031911887 0.21939208
0002c0 31 2d 4f be 51 fb d7 3c f2 84 7e be 9b ea 23 3e
       -0.20232083 0.026364954 -0.24855402 0.16007464
0002d0 ce 25 9d bd 08 f7 a5 be ab 6a 79 3b 4d 59 f0 bb
       -0.07673226 -0.32415032 0.0038057964 -0.007334864
0002e0 93 9c f4 bd 84 7e dc bc 9a cd 25 3e 07 e5 a7 3d
       -0.11943927 -0.026915796 0.16191712 0.081979804
0002f0 c6 c5 7a 3e d9 79 76 3d d7 fc b2 3e 65 f9 87 bc
       0.24489507 0.060174797 0.34958526 -0.016598413
000300 0b a6 2d 3e 59 33 c4 3d 7f eb a8 3e c7 98 ed 3c
       0.16957872 0.09580106 0.3299217 0.029003514
000310 22 a9 7f 3d 20 5c 12 3e 93 31 1b be 14 d4 00 be
       0.062417157 0.14292955 -0.1515563 -0.12580901
000320 38 fa 24 3e 41 25 9e bd cb 5b 8b 3d 4f 74 a5 be
       0.16111076 -0.07721949 0.068046175 -0.323153
000330 c0 04 13 be a4 3c 12 be ec a9 af 3e c7 4d 1d 3f
       -0.1435728 -0.14280945 0.34309328 0.61446804
000340 f5 d0 b3 3c 3f e0 dd 3e 5d b0 46 3e 81 e2 32 be
       0.021950224 0.4333515 0.19403215 -0.17469217
000350 3d ec 8d 3d a5 43 25 be bb c1 b6 be 29 53 7e 3c
       0.069298245 -0.16139086 -0.3569468 0.015522757
000360 83 be b2 bd d6 0e 7c bd 0a a9 fd 3e d8 c2 be be
       -0.087277435 -0.061537586 0.4954303 -0.3725803
000370 8d 93 08 be 89 f6 12 3e 35 11 73 be 56 ea fe bc
       -0.13337536 0.14351858 -0.23737033 -0.0311176
000380 d7 c0 68 be ae ac 2c be d0 77 86 be b3 f4 0e 3d
       -0.22729813 -0.16862747 -0.26263285 0.034901332
000390 80 7d db bd eb 5f de 3d 69 9c bd 3d 65 16 77 3d
       -0.107172966 0.10858139 0.092583485 0.06032409
0003a0 f8 27 94 be 98 07 0c bd 47 82 0d be ec 0a ae bd
       -0.28936744 -0.03418693 -0.13819228 -0.08498177
0003b0 c9 ba 83 3e 4c 4f c3 3e 47 69 e4 3c b0 63 47 be
       0.25728443 0.38146436 0.027882231 -0.19471622
0003c0 93 fe 08 be 29 12 80 3e 92 e2 4f bb 1a 3b f7 3e
       -0.13378362 0.25013855 -0.003172074 0.48287278
0003d0 b0 72 fa 3e 16 9d ec bd c4 46 91 3e f4 9a 44 be
       0.48915625 -0.11553399 0.28374302 -0.19199735
0003e0 91 48 52 be 53 58 d3 bc eb f8 65 be 7a 36 a8 be
       -0.20535494 -0.025798952 -0.22458236 -0.32854062
0003f0 da b4 13 3e dc 1b a5 3d aa 88 f5 bd 57 b8 22 3f
       0.14424458 0.080619544 -0.11988957 0.6356253
