ilikepaintings/weights/VAPS999/RN50.pth (torch, 5083 bytes, 1 tensors)

weight f4 [1, 1024]
00000000: 6fe9 68bd e4e8 2a3e de0a 43be 49c6 0ebc
00000010: 82eb b0bd 9562 5cbd 0ef6 383e 997c e1be
00000020: c48c 903e 99c4 1fbf 1e61 b13e 4b2c 59be
00000030: 189a 933e 6d2c 5abe a306 bcbe c641 8abe
00000040: 421c 253c 7ac5 943d d109 3e3c 48ff c5bd
00000050: 5409 2e3e 5c30 ba3e cfed 82bd 3133 063e
00000060: 1885 0c3e 44c7 223d d7f1 3dbe 6985 793d
00000070: d711 d83d 37b5 7ebe 69f9 bf3c 803e b93d
00000080: 685a 5dbe df8b 003d c70d baba 3183 9f3c
00000090: 86bd 923e 806e 6e3e 2804 debc 7828 a7bd
000000a0: f060 ac3d 7cbd 2fbf 18ea f4be 1f53 453e
000000b0: ae3b c6bd 6ec7 c7bd 8546 193d bdc9 163f
000000c0: 1c5b e5be 9e7b ffbb 113e e23c 168b 2c3c
000000d0: 38f1 0f3f c28c 61be 4433 9f3d 80e2 923f
000000e0: 6d1a 2d3e ae4c 1bbb 24e5 103e 0fc8 8a37
000000f0: 8817 2e3e a6dd 02bf e888 40be 6fd0 183e
00000100: 36ec cc3c b1d7 7bbb e166 15bd 3d8e 26be
00000110: de23 e63c 4f65 183d 202a 7b3c 37e5 87bd
00000120: 7049 c13d 4d44 01be 6b3d b5be 945a 64be
00000130: 23ae 70be 467f 683d db2a 89be a518 543e
00000140: 0257 55bf a745 97bd e0e6 2d3e 8336 d73c
00000150: e84b ce3e 4f0d 463e 3a8c fd3e 19c0 4a3d
00000160: 46b5 313c 2600 383e 2a73 3cbe 5936 febc
00000170: fa5d 02bf fba1 56bd b81c b3be 5f00 a3bd
00000180: 5e14 073d d5f3 583e 04f3 193d f3ad 4c3e
00000190: ec64 29be 2e5e 78be c662 aebe 53af 87bb
000001a0: 9254 e2bd d1d9 f9bc dd44 1f3e 65d9 5d3d
000001b0: ef3f 8f3c 4df1 f0bd 5beb 21bf 2e47 8f3e
000001c0: 1b93 a33e a39c 0bbe c9bc 573d 4b04 913b
000001d0: cab1 2d3d 7875 29be 2730 c63c 5849 09be
000001e0: d17e 673c 1b97 adbd 199b a1be 9456 91be
000001f0: 355e 10bd b28d 6abd 4836 7d3c ffc0 313b
00000200: d66c 293e 0b68 393d 9724 8ebe 8c41 19be
00000210: 180c 90be b4f7 aabe a3e2 1abd 4d61 bf3d
00000220: ea6b 813d a09b 2d3e 72b1 cf3b 5f0a 45be
00000230: 421a edbe 6e10 ca3e ea62 e5bd 9af8 4dbd
00000240: e1cf 16be a7ef aabd e724 6fbe ca48 193e
00000250: 14f8 c3bd c723 28be 203f 22be d8b8 673e
00000260: e64b 123e f517 b23e 9ac0 30bd 3213 bc3d
00000270: 35cf 8d3d 2b33 e13d 36b5 f33b 35eb 103d
00000280: a7b6 19bd c912 5b3d 417a fb3d 9954 973d
00000290: f801 66be bb0e 2abe 61fb 873e 489f 443e
000002a0: 3d81 a33d c3bb 15bd fd56 5dbe 00b0 92be
000002b0: a068 ec3e 9599 233d 6812 c93d 790d f5bd
000002c0: 7b36 d2bd 11b9 6abe 1ba0 46be 6779 f83b
000002d0: 1f91 35be e484 853e 14bb bf3c fe0b eabd
000002e0: b06b 76be b58c a9bb cfe5 31bd d338 2a3e
000002f0: 385f 0cba eb90 d83e 1f8c 2ebe 02a4 0ebe
00000300: 06e2 d23d 380e d5bb 155b 6f3e fed5 bcbd
00000310: 591a 8cbe 3fc8 10bb 8598 1fbe 5b63 1b3c
00000320: 6a24 ec3c 4ea7 6abe 68ec 173f 0a62 ccbd
00000330: a018 0bbe 9fe0 353d 350c 70be 0e47 91be
00000340: 9a19 c63d 8132 8f3c dc9c 35be 921f b53d
00000350: 6456 af3a b92b 903d 4346 443e c13f 1fbe
00000360: a5a3 4a3d f9c0 0abe 7ee1 68be e303 d33e
00000370: 8eee 30bc ef28 7a3d 26f6 cfbc bbba b83e
00000380: 7827 9c3d 2c1b f6be ce93 97be 805e f2be
00000390: 0661 373d 6930 8cbd 0213 aebd ee7d a83e
000003a0: ecf1 d8bd d360 8a3e a068 ab3d eacb 0d3e
000003b0: 5668 b9bc dfb8 f6be 698d 18be 6132 1f3f
000003c0: 4f90 12be fe3d 863e 4ae1 e63d b41e f53c
000003d0: 8acc 1cbe 82c0 0c3e 071a b73d 0519 3c3e
000003e0: 150d f8bd e44d 01be e3ee f33e e4ac 1dbe
000003f0: ec80 61be 1259 1f3e 2749 68bc 06f2 dc3e
-0.056863245 0.16690403 -0.19047114 -0.008714267 -0.086386696 -0.053804953 0.18062612 -0.44040373
0.28232396 -0.6240936 0.34644407 -0.21208303 0.28828502 -0.2130601 -0.36723813 -0.27003306
0.010077538 0.07264228 0.01159902 -0.09667832 0.16995746 0.3636502 -0.06393015 0.13105465
0.13722646 0.039740816 -0.18549286 0.060918245 0.10550278 -0.24873815 0.023434358 0.09045124
-0.21616518 0.03138339 -0.001419478 0.019471737 0.2866022 0.2328434 -0.027101591 -0.08162016
0.08416927 -0.68648505 -0.4783485 0.1926999 -0.09679352 -0.09754835 0.03742077 0.5890158
-0.44796073 -0.0077967187 0.027617486 0.010531208 0.56227446 -0.22026351 0.0777345 1.1475372
0.16904612 -0.0023696828 0.1414991 1.6544042e-05 0.17001164 -0.5111946 -0.18802226 0.14923261
0.025014978 -0.0038428123 -0.036475066 -0.16265197 0.028093275 0.03720599 0.015329868 -0.06635516
0.09437835 -0.12623711 -0.3539842 -0.22300178 -0.23503928 0.056762002 -0.2679051 0.20712526
-0.8333589 -0.07386332 0.16982603 0.02627111 0.40292287 0.19341014 0.49521047 0.049499605
0.010846442 0.17968807 -0.18403307 -0.031031774 -0.50924647 -0.05240057 -0.34982848 -0.07959055
0.032978408 0.21186765 0.037585273 0.19988231 -0.16542405 -0.24254677 -0.34059733 -0.0041407733
-0.11051287 -0.03049937 0.15553613 0.0541624 0.01748654 -0.117647745 -0.6324975 0.27983993
0.3194817 -0.13633971 0.052670274 0.0044255606 0.04240588 -0.16548717 0.024192883 -0.13406885
0.0141293565 -0.08476087 -0.31563643 -0.28386366 -0.035246093 -0.057264037 0.015454836 0.0027123091
0.16545424 0.04526524 -0.2776229 -0.1496641 -0.28134227 -0.33392107 -0.037813794 0.093447305
0.06319411 0.16953897 0.006338292 -0.19242238 -0.46309096 0.3946566 -0.11200507 -0.050285913
-0.14727737 -0.08346491 -0.23353921 0.14969173 -0.095688015 -0.16419898 -0.15844393 0.22629106
0.14286765 0.34783903 -0.04315243 0.09183349 0.06924287 0.10996088 0.0074373735 0.03538056
-0.037527706 0.05348471 0.122791775 0.073891826 -0.22461689 -0.16607182 0.26558974 0.19201386
0.079836346 -0.036556017 -0.21615215 -0.28649902 0.46173573 0.03994139 0.09817964 -0.1196546
-0.102642976 -0.2292216 -0.19397013 0.0075828317 -0.1773114 0.2607795 0.023404635 -0.114280686
-0.24064517 -0.0051742443 -0.043432053 0.16623239 -0.0005354765 0.42298064 -0.1704564 -0.13929752
0.10297017 -0.006501939 0.23374589 -0.09220503 -0.27363852 -0.0022092012 -0.15585525 0.009484137
0.028825957 -0.22915384 0.593451 -0.09979637 -0.13583612 0.04440367 -0.23442157 -0.28374523
0.09672852 0.017480137 -0.17735618 0.08843912 0.0013377187 0.070395894 0.19167428 -0.15551664
0.04947247 -0.13550176 -0.22742268 0.41213903 -0.010799063 0.061074194 -0.025385927 0.36079964
0.076247156 -0.48067605 -0.29604954 -0.47337723 0.044770263 -0.06845171 -0.08499719 0.32908577
-0.10593018 0.27026996 0.08369565 0.13847318 -0.022632759 -0.4818792 -0.14897694 0.6218625
-0.14312862 0.2621917 0.11273439 0.029921867 -0.153124 0.13745311 0.08940511 0.18368919
-0.1211187 -0.12627369 0.47643194 -0.15397984 -0.22021836 0.15561321 -0.014177597 0.431534
