ilikepaintings/weights/VAPS999/RN50x4.pth (torch, 3555 bytes, 1 tensors)

weight f4 [1, 640]
00000000: d003 fabe 2e98 343e 0602 39be a9e2 2abf
00000010: 42fb 47be e623 81be d25e 19be 4ee0 e13e
00000020: 4945 103e 6ad4 1ebb 0578 f8be 7e28 693e
00000030: e5c3 2f3e a398 0f3f 6f9a 9ebe 4532 12be
00000040: ee31 113e 99f6 063d 452f 71bf 1795 cb3e
00000050: 7251 f53d 3982 bdbe 58c8 f9be ed62 ce3e
00000060: b72e 3b3e f75d 073f 3d40 8cbe 09cc e2be
00000070: 65f2 bcbe 6d18 d33e 2216 80ba a192 1dbf
00000080: 5d21 32bd f3e7 9ebe 3532 b93c 6bed 393f
00000090: bec8 fb3e d14b 16be 2df0 053e 69b6 f63d
000000a0: 291f 53be 4c8a 963e 082a b13e 52b8 d13d
000000b0: 81a1 00be 96e7 a5be 4647 dfbd de12 f43e
000000c0: 5050 e93d a3f9 28bd 1898 62be 441e bf3d
000000d0: ac0d be3e b443 5bbe 9b78 2cbf 11b1 313e
000000e0: 505f 7abe 3455 d73e e63f 9cbe 8fc7 09be
000000f0: 27d5 30be 4649 da3e 7348 b93e a62e f6bd
00000100: cc97 a03f 7638 bebe 3520 023e f222 f43d
00000110: 50ce f7bd aacd 69be 8c18 103e 02c5 49bc
00000120: 190a 0b3d f9fa 6cbd e3ee 91be 7291 2bbd
00000130: 802b a03e 7dcc 523e dc55 203e 5b78 3c3f
00000140: 87f8 e63d 8880 afbe f169 65be 14bc e7be
00000150: d78b 863e 7f64 3ebd 6e0a 24bf a6a9 923c
00000160: b660 93be e2c6 d9be 3318 d4be 581d 6d3e
00000170: 8dfb 1bbd 0466 0f3e bb9d 8b3f c6fc 32bd
00000180: 6b32 a43e 14fd b03d 6935 d33e b3e5 043f
00000190: 71e8 483e 740f 823d c627 d6be c9f7 423f
000001a0: 24d3 6fbe 0949 be3e 6980 68be 39ea 8a3c
000001b0: 0f43 973e 6b5b 02be 43ff e93d 1276 1e3f
000001c0: d735 a3be 3fdb 7dbd b2ad 223f b971 903d
000001d0: 3abe 6abe f25e be3a d896 403e deff 10be
000001e0: 9041 993c fc0e 84be addb 7cbe e2f7 8a3e
000001f0: 3aef ef3e ccce eebd 560b 4dbe b975 203e
00000200: b0a1 a8bd 935c 2abe e5c3 4b3d cf65 30bd
00000210: b728 15be 8da6 6dbe f6c8 a2bc eaec b4be
00000220: 98f2 dc3e c663 bb3e 31cd e83e bf42 b1bd
00000230: e8a6 953d 891f c9bd 9471 df3e a596 813e
00000240: ceb9 8dbe 515a d03c 1ed8 073f 357d 2cbe
00000250: f8ab b3bd 7c6e 9d3e 9c42 e0be eb59 cdbe
00000260: 2c35 77be 438e c2be ac9b d2be 5b79 47bf
00000270: 8e77 e53d 07b4 0d3f e02d 2e3e 12cb 353d
00000280: dbc9 1cbd ee62 b3bd 1f6a 19bf abfb 09be
00000290: 42ac 8e3e 5192 f3be 0d77 cdbe 5b43 f83d
000002a0: 14c3 12be d219 903e 097e 9dbe bbf8 0cbf
000002b0: 64bb 603d 4306 fbbb 241d f0be 3ec8 e4bd
000002c0: fadb e23e e95a 163e fd41 143f f55e debd
000002d0: 5418 403e 8d0d cd3d 56e7 a33e 1710 dc3d
000002e0: 6262 0ebe 4fd5 6c3d d072 8ebe bafc 9abc
000002f0: 0a48 94be 2ddc ea3e a050 99be d0f6 21bf
00000300: c944 49bd c231 683d 540d ffbd f634 e03c
00000310: 6468 ca3a 94ee 9dbe 0ef5 923f e519 e43d
00000320: c006 673f 19c2 36bd d582 1ebf 0e2e a2be
00000330: bbd5 52be 6f9e fb3c e983 cabd ae98 643d
00000340: f799 6a3d 2b77 a03e 4013 29bf 6f52 6b3c
00000350: 18af 59be 6865 31be f758 93be 0efc b1be
00000360: 5825 62bf f54e bbbe ad0c c6bd c872 ad3e
00000370: d7b3 0e3e b6b7 fc3d 7aa4 fa3e 037e 6d3e
00000380: 9b6d cebe f639 8abf 32e0 3d3d c862 183f
00000390: ce37 80be 61f6 dc3e e4a1 5a3d 5837 39bd
000003a0: 750c 3f3d 790b 2abe 94e6 8f3e cb22 c13d
000003b0: f217 203e cafa db3d 766f e1bd 1e02 c9bc
000003c0: 2d14 0fbf b54c d3be bf4c 373e 2a3b a43e
000003d0: 633e 85bf b0b1 68bb 3184 07bf 061f babe
000003e0: 37f1 423e 2f83 03be a072 983e dba1 4f3f
000003f0: bb94 013f 0162 51be a044 ddbb 9fd5 983d
-0.48831034 0.17636177 -0.18067178 -0.66752106 -0.19529441 -0.252227 -0.14977577 0.44116443
0.1408893 -0.0024235495 -0.48529068 0.22769353 0.17164572 0.5609228 -0.30977198 -0.14276989
0.14179203 0.032950018 -0.9421275 0.39762184 0.11978425 -0.37013415 -0.48785663 0.4030985
0.18279539 0.52877754 -0.2739276 -0.4429629 -0.36903682 0.41229573 -0.0009772221 -0.6155186
-0.04348885 -0.31036338 0.022606948 0.72627896 0.49176592 -0.14677359 0.13079901 0.12046511
-0.20617355 0.29402387 0.3460238 0.102402344 -0.12561609 -0.3240325 -0.10902266 0.47670645
0.113922715 -0.041253697 -0.22128332 0.093319446 0.37119806 -0.21412545 -0.6737153 0.17352702
-0.24450421 0.42057192 -0.305175 -0.13455032 -0.17268811 0.42634028 0.36188087 -0.12020616
1.2546325 -0.3715245 0.12707599 0.11920728 -0.12099898 -0.22832361 0.14071864 -0.012315037
0.033945177 -0.057856534 -0.2850257 -0.041886754 0.31283188 0.20585819 0.15657753 0.7362115
0.112778716 -0.3427775 -0.22403695 -0.4526068 0.26278564 -0.04648256 -0.64078414 0.01790316
-0.28784722 -0.42534548 -0.41424713 0.23155725 -0.038081694 0.1400376 1.090751 -0.043698095
0.32069716 0.08642021 0.41251686 0.51912993 0.1961992 0.06350604 -0.4182722 0.7615934
-0.23420388 0.37165096 -0.22705235 0.01695739 0.2954335 -0.12730186 0.114256404 0.6189891
-0.31877014 -0.061976667 0.6354629 0.07052941 -0.22924128 0.0014524146 0.18807542 -0.14160106
0.01870802 -0.25792682 -0.24693175 0.27142245 0.46862203 -0.11660537 -0.20023856 0.15669908
-0.082339644 -0.16636877 0.049747366 -0.043065842 -0.14566313 -0.23208065 -0.019871216 -0.35337
0.43153834 0.3659956 0.4546905 -0.08655309 0.073072255 -0.09820468 0.4364134 0.25310245
-0.2768082 0.025433691 0.53064144 -0.16844638 -0.08773035 0.30748355 -0.4380082 -0.40107664
-0.24141377 -0.37999162 -0.41134393 -0.7791955 0.11204444 0.55352825 0.17009687 0.044383116
-0.038278442 -0.08759104 -0.5992755 -0.1347491 0.27865797 -0.47572568 -0.4012989 0.12122222
-0.14332229 0.281447 -0.3076022 -0.5506703 0.05486621 -0.0076606586 -0.46897233 -0.11171006
0.44308454 0.14683117 0.5791319 -0.10857955 0.1875928 0.1001235 0.32012433 0.107452564
-0.13904718 0.057820614 -0.2782197 -0.018919338 -0.2896121 0.45871106 -0.29944324 -0.6326723
-0.049137864 0.056688078 -0.12453714 0.027369004 0.0015442488 -0.30846083 1.1481035 0.111377515
0.90244675 -0.0446187 -0.61918384 -0.31675762 -0.20589344 0.030715195 -0.09888441 0.05580967
0.05727574 0.31340918 -0.66045 0.014362915 -0.21258199 -0.1732384 -0.28778812 -0.34762615
-0.8833823 -0.36583677 -0.096703865 0.33876634 0.13935791 0.123397276 0.4895361 0.23192601
-0.40317997 -1.0798938 0.046356387 0.5952573 -0.25042576 0.43156722 0.053377047 -0.045218796
0.04664274 -0.16605939 0.28105605 0.09430464 0.15634134 0.107411936 -0.110075876 -0.024537142
-0.5589016 -0.4126946 0.1790037 0.3207639 -1.0409664 -0.00355063 -0.52936083 -0.36351794
0.19037329 -0.12843011 0.29774952 0.81106347 0.5061757 -0.20447542 -0.0067525655 0.0746262
