ilikepaintings/weights/VAPS999/ViT-L-14@336px.pth (torch, 4163 bytes, 1 tensors)

weight f4 [1, 768]
0	0x39234751	0.00015571459
1	0x3d20ec16	0.03928765
2	0xbe91693c	-0.284006
3	0xbd180c99	-0.03712139
4	0x3ee07f36	0.43847054
5	0x3d4fcde8	0.050733477
6	0x3c9cb657	0.019129915
7	0xbe174d6c	-0.14775628
8	0x3e754b8d	0.23954602
9	0x3e49eee6	0.19720039
10	0xbdb1b2ee	-0.08676706
11	0xbe87732a	-0.2645505
12	0xbeb71afe	-0.3576278
13	0x3db2d31f	0.087316744
14	0x3e7ff48d	0.24995632
15	0xbddf9470	-0.10916984
16	0x3d51d8ca	0.051232137
17	0xbea595cc	-0.32340848
18	0x3e8352a4	0.25648987
19	0x3d9d432e	0.07678829
20	0xbd874bc5	-0.06606249
21	0xbe12c6d4	-0.1433366
22	0x3db697f9	0.08915705
23	0xbe09f350	-0.13471723
24	0xbe322ae6	-0.17399177
25	0x3e2baa83	0.16764264
26	0xbec3e62b	-0.38261542
27	0x3e4b87c0	0.19876003
28	0x3d1b0684	0.03784801
29	0xbe9f5c3d	-0.3112506
30	0xbeaeb3f6	-0.34121674
31	0x3df6f262	0.120579496
32	0x3e53aeaf	0.20672105
33	0xbe116c1a	-0.14201394
34	0x3d21d9d4	0.039514378
35	0x3dd24f4c	0.10269031
36	0x3d65f502	0.05614186
37	0x3e26f1e7	0.16303216
38	0x3cb3bcab	0.02194055
39	0xbbdcbc53	-0.006736317
40	0xbe1980b5	-0.14990504
41	0xbe2181b4	-0.15772134
42	0xbe12a29e	-0.14319846
43	0x3e418d21	0.18901493
44	0x3ceb9d31	0.028761478
45	0xbb7642ed	-0.0037576512
46	0xbe6b2dfc	-0.2296676
47	0x3d8db131	0.06918562
48	0x3e2f9253	0.17145662
49	0x3ea6a0cf	0.32544562
50	0xbd92716e	-0.07150541
51	0x3f03a4b6	0.51423204
52	0xbe956720	-0.2918024
53	0x3ea0b6e6	0.3138954
54	0xbc65adf3	-0.0140185235
55	0xbe766ea1	-0.24065639
56	0xbe4e2268	-0.20130312
57	0x3edf4002	0.43603522
58	0xbf0eae5a	-0.5573479
59	0xbeca7fce	-0.39550632
60	0xbd826fe7	-0.06369
61	0xbe110e7c	-0.14165682
62	0x3db01aa5	0.08598832
63	0xbe7c003b	-0.24609463
64	0x3e8f20a8	0.27954602
65	0x3e7d537a	0.24738875
66	0xbe99c652	-0.3003412
67	0xbedaab98	-0.4270904
68	0x3e6095e6	0.21932182
69	0xbed18f40	-0.40929604
70	0xbd9ba53e	-0.07599877
71	0x3e283296	0.16425547
72	0xbda93143	-0.08261349
73	0x3d7a764e	0.06114798
74	0xbec984d4	-0.39359152
75	0x3cebb341	0.028771998
76	0xbf105f36	-0.5639528
77	0xbd8cafa8	-0.06869441
78	0x3f14c46b	0.5811221
79	0xbdb46ef9	-0.08810229
80	0x3c7710d3	0.015079695
81	0xbc477ef9	-0.012176269
82	0xbeaaf448	-0.33389497
83	0x3e912777	0.28350422
84	0x3da06e1e	0.07833503
85	0x3d9da8e4	0.07698229
86	0xbe63bb80	-0.22239494
87	0xbf22f457	-0.63654083
88	0xbddb67e5	-0.10713176
89	0xbf1b54cc	-0.60676265
90	0xbe87920c	-0.26478612
91	0xbe42d04f	-0.19024776
92	0xbe40c9e2	-0.18827012
93	0xbe842c97	-0.2581527
94	0x3e981175	0.2970082
95	0xbdf50959	-0.119646735
96	0x3cb2973f	0.021800635
97	0xbed297b9	-0.4113138
98	0xbdf641af	-0.12024247
99	0xbe448f50	-0.19195294
100	0xbf054f65	-0.5207427
101	0xbea4dc84	-0.3219949
102	0x3d1036db	0.035208564
103	0x3c6c9f93	0.014442342
104	0xbe2cb7a8	-0.16866934
105	0x3e95c8f1	0.2925487
106	0xbebfd070	-0.37463713
107	0xbd99b28e	-0.0750476
108	0xbc3502bc	-0.011048015
109	0x3b6d1605	0.0036176455
110	0xbe415f46	-0.18884
111	0xbebf6800	-0.37384033
112	0xbe4fe5d1	-0.20302512
113	0x3e74c51f	0.2390332
114	0xbece26ad	-0.40263882
115	0xbdba98ec	-0.09111199
116	0xbf186080	-0.5952225
117	0x3e40b32b	0.18818347
118	0xbf4f106d	-0.8088444
119	0x3e81cbbe	0.25350755
120	0xbcad7931	-0.021175953
121	0x3e5c7d79	0.21532239
122	0x3dad6841	0.084671505
123	0x3c9ba5f2	0.019000027
124	0x3e2dc9d3	0.16971521
125	0xbe7b9470	-0.24568343
126	0x3dfd6066	0.12371902
127	0x3f25a6ef	0.64707845
128	0xbbc6c1ac	-0.006065568
129	0x3eb99e55	0.3625361
130	0xbef82301	-0.48464206
131	0x3e2468ec	0.1605565
132	0xbdc7a2a1	-0.09747816
133	0x3e8c0271	0.27345613
134	0x3eb4e053	0.35327396
135	0x3e45e5a9	0.1932589
136	0xbd62022a	-0.055177845
137	0x3e64e959	0.2235464
138	0x3db459b1	0.0880617
139	0xbe472db0	-0.19451022
140	0xbd6c4f35	-0.057692725
141	0x3cdeb714	0.027186908
142	0xbdc2ff51	-0.09521354
143	0xbda0e971	-0.078570254
144	0xbe47b53c	-0.19502729
145	0xbe39fc80	-0.18162727
146	0x3d424bee	0.047435693
147	0x3f61e5cd	0.88241273
148	0x3ea94510	0.33060503
149	0x3daa2fdc	0.0830991
150	0x3d13364c	0.035940453
151	0x3e99e7a2	0.30059534
152	0xbe15a59e	-0.14613959
153	0xba787165	-0.00094773463
154	0x3ebcc071	0.3686557
155	0xbe06f546	-0.13179502
156	0x3db604e3	0.08887651
157	0xbf32ffb8	-0.69921446
158	0x3e5b76df	0.21432064
159	0xbe9b69b9	-0.30354097
160	0xbf05eca8	-0.52314234
161	0xbc606d9a	-0.013698006
162	0xbef37418	-0.4754951
163	0x3deb4318	0.114874065
164	0xbe9351f4	-0.28773463
165	0x3e7207d3	0.23635797
166	0x3ea89f5b	0.3293408
167	0xbab3b2e6	-0.0013709932
168	0x3dae3481	0.08506108
169	0x3dcd704a	0.10031183
170	0x3da6e14b	0.0814844
171	0x3df02ab4	0.11726895
172	0x3f070c2d	0.52752954
173	0xbe9178be	-0.2841243
174	0x3e8c72bc	0.27431285
175	0xbe8d3b70	-0.2758441
176	0xbd0d20c7	-0.034455087
177	0xbf12a377	-0.5728068
178	0xbea85ae8	-0.32881856
179	0xbe5aa82b	-0.21353213
180	0xbd668088	-0.05627492
181	0x3ee42363	0.44558248
182	0x3e737e2b	0.23778598
183	0xbe26f632	-0.16304854
184	0x3c3fd36c	0.011708122
185	0xbe792c77	-0.24333368
186	0x3e7a170e	0.24422857
187	0xbe3fd333	-0.1873291
188	0xbec8f882	-0.39252096
189	0xbe25578d	-0.16146679
190	0x3f0568b4	0.5211289
191	0x3e18f2c6	0.1493636
192	0x3d81d6fc	0.06339833
193	0xbc8a318d	-0.01686933
194	0xbe8da8b4	-0.27667773
195	0x3e43cc8b	0.19120996
196	0xbdc4846b	-0.09595569
197	0xbe156360	-0.1458869
198	0x3dd6fba5	0.10497216
199	0xbea394b9	-0.31949404
200	0x3ec17212	0.3778234
201	0x3b1eed36	0.0024250275
202	0xbdae432f	-0.08508908
203	0x3d7b31c3	0.061326753
204	0x3eac43ef	0.3364558
205	0xbcbd9744	-0.023143418
206	0x3e81938c	0.25307882
207	0xbf096cf6	-0.53681886
208	0xbf0c8d46	-0.54903066
209	0x3eb0a28b	0.3449901
210	0xbeda4a6e	-0.4263491
211	0xbdd407a5	-0.103530206
212	0x3dab95ec	0.08378205
213	0xbeaebf1c	-0.3413018
214	0xbdb2eb4b	-0.08736285
215	0x3bf01c82	0.007327617
216	0xbe6cd5b3	-0.23128395
217	0xbd30a983	-0.04313041
218	0x3ef96497	0.48709556
219	0x3da1280d	0.07868967
220	0xbe2cf8d5	-0.16891797
221	0x3e074521	0.13209964
222	0x3d1feda9	0.03904501
223	0xbf302bc5	-0.68816787
224	0xbdb18446	-0.08667807
225	0x3d9002d2	0.07031788
226	0x3ef28c25	0.47372547
227	0xbe112bc0	-0.14176846
228	0xbda46f0e	-0.080289945
229	0x3e4264f5	0.18983825
230	0x3e25d5f8	0.16194904
231	0xbd41ffb7	-0.04736301
232	0x3c1c024e	0.009522034
233	0xbe68bc44	-0.22728068
234	0x3de6bdb3	0.11266651
235	0xbe05621b	-0.13025706
236	0xbcb10713	-0.021609819
237	0x3ea7752f	0.3270659
238	0x3ea94cd9	0.33066443
239	0x3cdb3bcb	0.02676191
240	0x3ea59df5	0.32347074
241	0xbe864537	-0.26224682
242	0x3cf8572c	0.030315004
243	0xbc6d13e8	-0.014470078
244	0x3e3652fa	0.1780509
245	0x3e70c0f0	0.235111
246	0xbe382100	-0.17981339
247	0x3e3beecd	0.18352814
248	0x3da8364c	0.08213481
249	0x3c2d19a0	0.0105651915
250	0xbe8e09db	-0.27741894
251	0xbe612abc	-0.21988958
252	0xbd0e5c6e	-0.034756117
253	0x3f285209	0.65750176
254	0x3eea7165	0.45789638
255	0x3e7efc9d	0.24901052
