ilikepaintings/weights/VAPS999/ViT-B-32.pth (torch, 3115 bytes, 1 tensors)

weight f4 [1, 512]
-0.19434598 0.059533473 0.0027887276 0.46803454 -0.14939746 -0.19945322 -0.19975658 -0.44455385
0.015654093 0.23502913 0.5992025 -0.002488155 0.31775337 -0.45354375 -0.15581116 -0.17308497
-0.35869506 0.13907234 0.6561221 0.105442375 0.78562635 0.25607526 -0.05839095 -0.050591532
-0.39099747 -0.036364753 -0.060245845 0.17992361 0.23603095 0.34661335 -0.06332326 0.28713623
0.31356004 0.10407457 0.8330786 0.12611634 0.3005144 -0.17648657 -0.10607323 0.56544584
-0.020206146 0.077079065 -0.13150597 -0.15323646 -0.18818906 0.6244433 0.19298184 -0.1345185
-0.18233742 -0.0793241 -0.2819298 0.25201082 0.056901067 0.17121579 0.1058003 -0.13500424
0.0569239 0.100680605 -0.16967784 0.0573007 -0.7181282 -0.07224026 -0.48759332 -0.09961368
0.2045727 0.029442193 -0.18606547 -0.55045336 0.1443138 -0.03345468 0.1340783 0.3626118
-0.46963066 -0.36731276 -0.081643425 0.13707818 0.36805582 -0.27818263 0.27241907 -0.022604646
0.097038284 -0.06237299 0.31317067 0.275885 0.58949345 -0.19912502 0.123185694 0.26603624
-0.45724604 -0.28384155 -0.36035144 -0.06618713 -0.19810274 -0.10725018 -0.16706957 -0.234569
-0.019312864 0.4006642 0.70067865 -1.2340319 -0.6393745 -0.38376576 0.26011184 0.06230367
0.90362656 -0.020751482 0.62795925 -0.5130876 0.5061784 0.5806747 -0.2748917 -0.17342222
-0.2164048 -0.093258105 0.2686723 0.392365 0.09558706 -0.120310396 -0.18823367 -0.20550334
0.5417511 0.5819736 0.12511238 -0.5489037 0.38449857 0.19510561 0.14315675 0.19341785
-0.35689008 -0.006697703 -0.71429735 0.3406689 -0.12335657 -0.11925585 0.20262507 -0.031940486
0.016358832 0.512585 0.42864698 -0.44379118 -0.23075153 -0.32939598 -0.11204351 -0.3967594
0.61716187 0.0510556 -0.15734701 0.41940898 0.03640033 0.18724845 0.2516582 0.035270944
0.08744759 -0.9066505 -0.44451723 -0.122819446 0.23317972 -0.042324226 0.47760278 -0.2541219
0.008162795 -0.069387786 0.1503534 0.2841132 -0.31524053 -0.06831845 0.1705271 -0.22123045
-0.16601753 0.11260121 0.29241788 -0.42812353 -0.66889095 0.12229236 0.38375375 0.3822304
-0.4172269 -0.26498422 -0.89395386 0.34627315 0.43206084 0.0575131 -0.09583518 -0.5172151
0.47385412 0.17674248 -0.20122674 0.4317689 -0.28814453 0.15938522 -0.66805637 -0.003802242
-0.56542325 -0.3184899 -0.35660332 0.04723009 0.59237504 0.022988573 0.7365076 0.25462443
0.19035561 0.12756914 -0.6055677 -0.15508619 -0.09734457 -0.057615943 -0.11407916 -0.2597512
0.25630245 0.44367096 0.1454691 -0.63355434 0.34617558 0.10274055 -0.13110541 0.25851047
-0.15569134 0.19323301 -0.071413115 -0.025392087 -0.016131256 -0.5920566 0.34018117 -0.25471735
0.40549055 -0.10198519 -0.17850102 0.031286586 0.112603396 0.031221544 0.18131405 0.14519204
-0.0228524 0.58851266 0.17428999 -0.20823048 -0.06817478 -0.08045253 -0.55392206 0.14739734
-0.10727727 -0.2246747 -0.33913127 0.3030861 0.28880695 0.48778397 0.07921429 0.37264273
0.15883222 0.46077606 -0.09400852 -0.33158025 -0.16046064 -0.12156746 -0.38137397 0.3976415
00000000: a202 47be 5fd9 733d 16c3 363b 39a2 ef3e
00000010: a6fb 18be 773d 4cbe fd8c 4cbe 909c e3be
00000020: 033d 803c 7aab 703e 5665 193f 5010 23bb
00000030: 92b0 a23e e336 e8be f68c 1fbe 303d 31be
00000040: e1a6 b7be fb68 0e3e 9ef7 273f 2cf2 d73d
00000050: cf1e 493f 4c1c 833e 592b 6fbd 1139 4fbd
00000060: d230 c8be 35f3 14bd 59c4 76bd e53d 383e
00000070: 19b2 713e 4e77 b13e a0af 81bd 8503 933e
00000080: f18a a03e 0c25 d53d a444 553f a424 013e
00000090: 06dd 993e e5b8 34be ec3c d9bd 0fc1 103f
000000a0: 5c87 a5bc a1db 9d3d 80a9 06be 05ea 1cbe
000000b0: a2b4 40be 84db 1f3f 089d 453e 38bf 09be
000000c0: a9b6 3abe ac74 a2bd 1a59 90be 9007 813e
000000d0: 1811 693d 3153 2f3e d4ad d83d 8d3e 0abe
000000e0: 0929 693d a231 ce3d 07c0 2dbe 24b4 6a3d
000000f0: 40d7 37bf b4f2 93bd d5a5 f9be 4202 ccbd
00000100: 827b 513e c130 f13c f287 3ebe 83ea 0cbf
00000110: ffc6 133e c607 09bd d24b 093e 41a8 b93e
00000120: 6e73 f0be 6b10 bcbe ab34 a7bd 395e 0c3e
00000130: d071 bc3e f46d 8ebe 837a 8b3e 612d b9bc
00000140: 02bc c63d d27a 7fbd e857 a03e cc40 8d3e
00000150: 0be9 163f 6ee7 4bbe c848 fc3d e735 883e
00000160: 271c eabe ae53 91be fc7f b8be 1e8d 87bd
00000170: 72db 4abe fba5 dbbd 4914 2bbe db32 70be
00000180: 0336 9ebc dc23 cd3e ad5f 333f c2f4 9dbf
00000190: 0cae 23bf f27c c4be 612d 853e 2232 7f3d
000001a0: 1254 673f 03ff a9bc f0c1 203f b559 03bf
000001b0: e894 013f 19a7 143f 9bbe 8cbe 9895 31be
000001c0: 3899 5dbe 1bfe bebd 6a8f 893e 11e4 c83e
000001d0: 26c3 c33d 4c65 f6bd 54c0 40be 786f 52be
000001e0: 33b0 0a3f 39fc 143f 761d 003e f484 0cbf
000001f0: ffdc c43e c4c9 473e af97 123e 540f 463e
00000200: 4cba b6be 6878 dbbb 31dc 36bf 276c ae3e
00000210: 5fa2 fcbd 693c f4bd f27c 4f3e 07d4 02bd
00000220: f502 863c c538 033f 9e77 db3e 9938 e3be
00000230: 214a 6cbe 97a6 a8be 1177 e5bd 0c24 cbbe
00000240: 52fe 1d3f ad1f 513d 931f 21be c6bc d63e
00000250: 8318 153d 0fbe 3f3e 58d9 803e 4478 103d
00000260: b917 b33d 3f1a 68bf c397 e3be c388 fbbd
00000270: aac6 6e3e 2b5c 2dbd 5a88 f43e 441c 82be
00000280: 3ebd 053c 2f1b 8ebd 3ef6 193e 4977 913e
00000290: 3567 a1be 8bea 8bbd a89e 2e3e 3c8a 62be
000002a0: 8000 2abe 779b e63d ccb7 953e 0233 dbbe
000002b0: 703c 2bbf 6b74 fa3d 5f7b c43e b4b3 c33e
000002c0: c49e d5be 03ac 87be 29da 64bf b74a b13e
000002d0: 1437 dd3e db92 6b3d 3c45 c4bd 3568 04bf
000002e0: 029d f23e fbfb 343e 620e 4ebe d010 dd3e
000002f0: ae87 93be e135 233e be05 2bbf 092f 79bb
00000300: 94bf 10bf 1c11 a3be b694 b6be 5774 413d
00000310: e4a5 173f 8852 bc3c c38b 3c3f 225e 823e
00000320: 95ec 423e 7ca1 023e 7c06 1bbf eace 1ebe
00000330: 975c c7bd b2fe 6bbd 56a2 e9bd 1cfe 84be
00000340: 133a 833e d728 e33e daf5 143e 9e30 22bf
00000350: ed3d b13e a369 d23d 7f40 06be 7c5b 843e
00000360: 8d6d 1fbe e0de 453e 0a41 92bd 1103 d0bc
00000370: b225 84bc 0591 17bf 3a2c ae3e 506a 82be
00000380: 759c cf3e 9cdd d0bd f9c8 36be 5d26 003d
00000390: 9c9c e63d 53c4 ff3c 64aa 393e 39ad 143e
000003a0: f534 bbbc c4a8 163f 1379 323e 5f3a 55be
000003b0: 389f 8bbd 4cc4 a4bd d6cd 0dbf 54ef 163e
000003c0: 2fb4 dbbd 2011 66be 9da2 adbe 1a2e 9b3e
000003d0: 81de 933e d2be f93e 1a3b a23d 07cb be3e
000003e0: eaa4 223e d7ea eb3e 8a87 c0bd e3c4 a9be
000003f0: cb4f 24be 5cf8 f8bd 7343 c3be ab97 cb3e
