ilikepaintings/weights/VAPS999/ViT-B-16.pth (torch, 3115 bytes, 1 tensors)

weight f4 [1, 512]
0	0xbf66c992	-0.9015132
1	0xbea3f4e2	-0.32022768
2	0x3e11408c	0.14184779
3	0x3ed6f469	0.41983345
4	0xbf2a9bf0	-0.6664419
5	0xbea8860c	-0.3291477
6	0x3c18be7b	0.009322758
7	0x3be6b2a6	0.0070403395
8	0x3f033ae6	0.51261747
9	0x3e00fafb	0.12595741
10	0xbe589903	-0.2115212
11	0x3efc8809	0.49322537
12	0x3dc80285	0.097661056
13	0xbe0a3f0c	-0.13500613
14	0xbee31012	-0.44348198
15	0x3eac5f76	0.3366658
16	0xbf1654a3	-0.58722895
17	0x3ea06e23	0.31334028
18	0xbef5a213	-0.47975215
19	0x3e0941a5	0.13403948
20	0x3f1faba5	0.62371284
21	0x3e40bc6e	0.1882188
22	0x3efeb994	0.4975096
23	0x3cd29d39	0.025709735
24	0xbea113bc	-0.3146037
25	0x3e49b555	0.19698079
26	0xbebf55c5	-0.37370124
27	0xbef0db5a	-0.47042352
28	0x3e35dea8	0.17760718
29	0x3c24f589	0.010068306
30	0xbdbed9bd	-0.09318874
31	0x3f0e5073	0.55591506
32	0xbe7099ac	-0.23496121
33	0x3f473dca	0.7782866
34	0x3c7ecc00	0.015551567
35	0xbd33eb0c	-0.04392533
36	0xbd649288	-0.055803806
37	0xbde79340	-0.113073826
38	0x3e836c59	0.256686
39	0xbed6cfac	-0.41955316
40	0xbdc84a42	-0.097797886
41	0x3e01956f	0.1265466
42	0xbd6b74ec	-0.057484552
43	0x3c5a191f	0.013311653
44	0x3db07ef3	0.08617964
45	0xbe9f04d1	-0.31058362
46	0xbebeb710	-0.3724904
47	0x3e962fbb	0.2933329
48	0xbd75fa42	-0.060053118
49	0xbda3f189	-0.080050536
50	0x3d115442	0.035480745
51	0x3ec3cd5f	0.38242623
52	0x3e874375	0.26418653
53	0x3e9a46bf	0.301321
54	0xbf1973b9	-0.59942204
55	0x3f0735ec	0.52816653
56	0x3ed8c97c	0.4234122
57	0xbeb8fb67	-0.36129305
58	0xbd285e53	-0.04110558
59	0xbeb8434b	-0.3598884
60	0xbf51e400	-0.81988525
61	0xbee4c7c0	-0.44683647
62	0x3e3cbe2e	0.18431923
63	0xbde53e09	-0.11193473
64	0xbec23ff0	-0.37939405
65	0xbe8cdc17	-0.27511665
66	0xbd1477ee	-0.036247186
67	0xbea4a955	-0.3216044
68	0xbdba771c	-0.091047496
69	0x3c1269a6	0.008936321
70	0x3f1de340	0.6167488
71	0x3d8dbb84	0.069205314
72	0x3d030643	0.031988394
73	0x3eb7890f	0.35846755
74	0xbcf07662	-0.029353324
75	0xbe5b9aac	-0.21445721
76	0x3e54d9ba	0.20786181
77	0x3e4ca159	0.19983424
78	0x3d1941a4	0.037416115
79	0xbf04eca7	-0.519236
80	0xbc8a3973	-0.016873097
81	0x3cc05294	0.023476876
82	0x3dc617ae	0.09672485
83	0xbe92ea9c	-0.28694618
84	0x3e2220bb	0.15832798
85	0x3e82fbe3	0.255828
86	0xbe66fd9e	-0.22557685
87	0x3e3caf9a	0.18426362
88	0xbd343e09	-0.044004474
89	0xbe54934b	-0.20759313
90	0x3de5898c	0.112078756
91	0xbe12f271	-0.14350297
92	0xbeea8358	-0.45803332
93	0x3d238958	0.039925903
94	0xbe629b21	-0.2212949
95	0x3e22aaab	0.15885417
96	0xbeab781d	-0.33490077
97	0xbf09c19d	-0.53811055
98	0xbe164e3c	-0.14678282
99	0x3e933c33	0.28756866
100	0xbe915286	-0.28383273
101	0x3e663201	0.22480012
102	0xbd684ca1	-0.056713704
103	0x3f06ca82	0.5265275
104	0x3e68e0a5	0.22741945
105	0x3c6a3f5f	0.014297335
106	0x3ded4467	0.11585312
107	0x3cd2098c	0.025639318
108	0xbdc24bab	-0.09487089
109	0x3eb7f6cc	0.3593048
110	0x3e75e73a	0.24013987
111	0x3e05970f	0.13045906
112	0x3d8abf0f	0.06774723
113	0x3d467db8	0.04845974
114	0xbe9608cb	-0.29303584
115	0xbebaf512	-0.365151
116	0xbee092d2	-0.43862015
117	0xbebaaf33	-0.3646179
118	0x3edded49	0.43345097
119	0xbec1f897	-0.37884971
120	0x3ed61f51	0.41820768
121	0xbe787212	-0.24262264
122	0x3c8e732c	0.017388903
123	0xbf352ce8	-0.70771646
124	0xbec294a6	-0.38004035
125	0xbeca47ba	-0.39507848
126	0x3f791113	0.9729168
127	0xbd7ee428	-0.062229306
128	0x3e069a62	0.1314483
129	0xbd8a315c	-0.06747696
130	0xbe79a3ff	-0.24378966
131	0x3e94a694	0.2903334
132	0xbeafdf1f	-0.34349915
133	0x3e986e2a	0.29771549
134	0xbee4a053	-0.44653568
135	0x3f253390	0.64531803
136	0xbec2fab4	-0.38081896
137	0xbedeb26e	-0.43495506
138	0xbcfee9a5	-0.03111727
139	0x3e49ffc3	0.19726472
140	0xbed3f48b	-0.4139751
141	0xbe8e9aa0	-0.27852345
142	0x3ec3b4bb	0.38223824
143	0xbd81151b	-0.06302854
144	0xbeda5890	-0.42645693
145	0x3e84c46c	0.25931108
146	0xbd3ff3ba	-0.046863295
147	0x3da125bb	0.07868525
148	0xbdb18fc5	-0.0867
149	0x3c3a26b4	0.011361767
150	0x3e5c54ce	0.21516725
151	0xbe2da51a	-0.16957512
152	0xbd30f022	-0.04319776
153	0x3e4cbafe	0.19993207
154	0x3ec0c60b	0.37651095
155	0x3e93573a	0.28777486
156	0x3dde8fb1	0.10867251
157	0xbdbdde10	-0.09270871
158	0x3dd11811	0.102096684
159	0xbd988a69	-0.07448275
160	0x3ebd6fa3	0.36999235
161	0x3ecca03c	0.39966
162	0xbf1d7e77	-0.61521095
163	0xbef9947d	-0.487461
164	0x3bc7d4cd	0.006098366
165	0x3e5e41c9	0.21704783
166	0xbe5dfcd1	-0.21678473
167	0xbe0b8573	-0.13625126
168	0x3ea92e78	0.33043265
169	0x3a12b232	0.0005596011
170	0xbd854e03	-0.0650902
171	0x3d4ec9cb	0.050485414
172	0xbe119f0a	-0.14220825
173	0xbe5184ae	-0.2046077
174	0x3e6c0adf	0.23051022
175	0xbdcf1d2c	-0.10112986
176	0x3e6dc312	0.23218945
177	0x3ccb44cb	0.024813076
178	0x3e78ff7a	0.24316207
179	0xbdf14149	-0.1178003
180	0xbe86d216	-0.26332158
181	0x3df68a48	0.12038094
182	0x3e4c2025	0.19934137
183	0x3efb982a	0.4913953
184	0x3ed704ef	0.41995952
185	0xbd302f7c	-0.043014035
186	0xbeb92a8f	-0.36165282
187	0x3c70dc80	0.014701009
188	0x3f1f9b73	0.6234657
189	0xbeb8f549	-0.36124638
190	0x3d643dae	0.055722885
191	0x3d54809a	0.051880457
192	0xbe0fd13c	-0.1404466
193	0xbe3f1f93	-0.18664388
194	0x3e0a2405	0.13490303
195	0x3c9a6f3a	0.018851865
196	0x3e4f5976	0.2024897
197	0x3e468fa5	0.19390734
198	0xbe34b4a8	-0.1764704
199	0xbf984571	-1.1896192
200	0xbde4cd43	-0.11171963
201	0x3e6e8eb1	0.2329662
202	0xbd47ac34	-0.04874821
203	0xbdeabda9	-0.11461956
204	0x3e8a33e1	0.26992705
205	0xbdcf9ac2	-0.101369396
206	0x3ec318e0	0.38104916
207	0xbeb0b39d	-0.34512034
208	0x3df43b5f	0.11925387
209	0xbf028dc9	-0.50997597
210	0xbeb3079b	-0.3496674
211	0xbeb5e27d	-0.3552436
212	0xbf476258	-0.77884436
213	0x3e7aeac5	0.2450362
214	0x3e529ad3	0.20566873
215	0x3e33ce56	0.1755918
216	0xbe66f4f5	-0.22554381
217	0x3cc425f6	0.023943882
218	0x3d43658d	0.04770427
219	0x3e46e66c	0.19423836
220	0xbd2d0464	-0.042240515
221	0x3e776d21	0.24162723
222	0x3d02f160	0.031968474
223	0x3ec897f6	0.39178437
224	0xbea17bc8	-0.3153975
225	0x3e81e3f9	0.25369242
226	0x3c92e9b3	0.017933702
227	0xbe0883eb	-0.13331573
228	0xbdd290c6	-0.102815196
229	0x3cea1f09	0.028579252
230	0xbde282e4	-0.11060122
231	0xbe756141	-0.2396288
232	0xbe2602a8	-0.16211951
233	0xbee6c292	-0.4507032
234	0x3d8db710	0.06919682
235	0xbeb27b8d	-0.34859887
236	0x3ea08ca9	0.31357315
237	0x3d1af911	0.037835184
238	0xbd8c8825	-0.06861905
239	0x3d96a8b1	0.07356394
240	0x3e902d04	0.28159344
241	0x3e9eb2c9	0.30995777
242	0xbe04d727	-0.12972699
243	0xbe7f7d48	-0.24950135
244	0x3e640de8	0.2227093
245	0xbd1b19f4	-0.037866548
246	0x3dc2c004	0.0950928
247	0x3e577f9e	0.21044776
248	0xbe5c43d8	-0.21510255
249	0xbf45f35e	-0.77324474
250	0xbd8984a1	-0.0671475
251	0x3ee52674	0.447559
252	0x3d98765d	0.07444451
253	0xbe6b2c00	-0.22966003
254	0xbf594188	-0.8486562
255	0x3d66b2d9	0.056322906
