ilikepaintings/weights/VAPS999/ViT-L-14.pth (torch, 4139 bytes, 1 tensors)

weight f4 [1, 768]
00000000: ca9d 803d 047e 61bd 079b febd 740b 00be
00000010: 612a e33e 6c84 c83c ee3c f03c 2686 983d
00000020: 34b4 7b3e d089 6a3e bdbc ffbd 1b85 4ebe
00000030: 4301 bebe dfd3 413d 1902 193e cbd7 3bbe
00000040: 2194 d03d a62a 3abe c2da 7c3e b5c2 47bd
00000050: ae50 58ba 30b9 d8bd 4960 933d 68e8 203d
00000060: 8bb2 e1bd ce15 823e 3a3d c0be 3705 193e
00000070: e3be 513d dc3e 81be e254 a6be 5fa6 b23d
00000080: a47c 983e 24b8 c8be 49e4 fe3d 87a5 2f3e
00000090: befc ed3d c7a0 8e3e ef31 9b3d e925 bdbd
000000a0: 5dd3 9bbd 7991 8abe c067 eebd c237 8c3d
000000b0: 4b73 05be 20a1 ae3d 6ae8 c9bd 4ce2 013e
000000c0: 654d 403e 3187 8b3e bf87 acbb cb7d 003f
000000d0: 3eac acbe 09d2 963e 0bea c03c efff 57be
000000e0: fc49 7dbd a570 f83e 9a60 efbe ca5e c4be
000000f0: 9306 8a3b dc59 6bbd 9305 403d 5266 82be
00000100: b159 b53e 92fd 19bc b753 cdbe 8429 e3be
00000110: e4ce 4b3e 4e2c ccbe 5433 a9bc e41d 703d
00000120: 287b 05bd 42bb f43d b449 16be 906c a93c
00000130: e790 fbbe 2dfb c6bc 53d8 1f3f c682 5cbd
00000140: 66dc a4bb 386e 4fbd 9255 84be 59f8 0b3d
00000150: 2efa 423b e0ee 263d b97a 07be 150d d8be
00000160: 4702 28be ed72 07bf f714 abbe aa4c 9bbe
00000170: 8b0d 5dbe be64 fabe 6981 073e 6523 04bd
00000180: be25 013b bf27 b4be 1fae 32bd c130 0bbe
00000190: 166b 05bf 5bb4 e3be ddb6 d7bd b2e8 18bc
000001a0: cc9a 39be d60d 943e 3bf6 a3be bcd6 a6be
000001b0: 0cc1 dc3d 35b7 df3c 7721 9cbd fa26 05bf
000001c0: e86e 25be d3fe 833e 068a debe 235f 96bd
000001d0: 9a9e e3be e665 403e a5e3 40bf 3953 cd3e
000001e0: 7a68 e0bd 2f9b 8e3e ec78 093e c213 723e
000001f0: 0bc6 913d e5bd 2bbe 752d d33d b541 573f
00000200: 0b65 0f3d 60c7 ae3e 98cf 8cbe 83e8 193e
00000210: cffd 3fbe 297c ce3e 28b2 b93e 1eb3 033e
00000220: 4f5c 3bbc 1e03 3b3e 79b1 843d 661b a6be
00000230: 71c4 27b9 68e7 223d e06f 03bd 2c2e 5fbd
00000240: 2508 63be 4261 0bbe c48f 8b3e 893d 723f
00000250: cd65 9f3e 706e f93d 7752 b63d 0039 d23e
00000260: e338 bdbe cd9b 683c 9e02 d03e 21d3 e7ba
00000270: c440 b8bc 08ab 35bf e44b b33e 7238 abbe
00000280: 032a 22bf 8f6a 6f3a 2a00 c3be 3bef 793d
00000290: 8eef a8be 0ee4 a83e 6d42 643e 566f 07be
000002a0: 16fa e03d de15 2d3e 36da 6dbd dea9 0f3e
000002b0: 3250 e53e 7990 80be 6394 483e f4a4 a5be
000002c0: 0a72 c1bd 0f46 fbbe a2ca a7be 5d72 81be
000002d0: 3fd7 37be 061d e03e 195e 243e cedf 43be
000002e0: 8d4d eabc 3ca2 6bbe f9f6 d73e a36b ffbd
000002f0: 5b75 debe 38bd 9abe 4ead ea3e fc05 bc3d
00000300: e4d0 663d 6e0a 1bbe 7dd2 88be a5b8 893e
00000310: b6e9 11be de27 36be 54b5 b93d d860 88be
00000320: 0205 df3e 0503 963c 5e58 c6bc a8b7 e5bc
00000330: c295 bc3e 7b02 f5bb 11b9 003e 5bac 15bf
00000340: 9306 ffbe 9a7c 8a3e ebf1 9fbe 77c6 66be
00000350: 1322 503e e8a3 c2be 9d6e 6dbd a6a5 fa3d
00000360: 414f 55be 4c98 923b c371 d73e 7043 0abd
00000370: 60f3 c03d aade f73c 1b79 0b3e 40e7 b8be
00000380: 34a4 dbbd 387c 2a3d 483c df3e 6980 3ebd
00000390: 812a fe3d a9d3 ee3d c22c 1e3e 0f50 a23d
000003a0: 19bd a03d d1b5 41be 486d 0e3d 2bae 1cbe
000003b0: 27f4 15be e8d6 a33e cbea 523e 6ded 173d
000003c0: 8341 2a3e 0c2d c1bd d68c 8d3c 3a95 163e
000003d0: 9895 323e fc69 833e e006 48be 57e5 8b3e
000003e0: d51b 81bc 5f02 063d cd9f 6ebe 38ef 22be
000003f0: b9db 5a3c 6bf3 163f d5d5 063f e53f 733e
0.06280096 -0.05505182 -0.12431913 -0.12504369 0.4436827 0.024477206 0.029325929 0.07447462
0.24580461 0.22904134 -0.12487171 -0.20167963 -0.37110338 0.047321197 0.14942206 -0.18344037
0.10184503 -0.18180332 0.24692824 -0.04876967 -0.00082517683 -0.10582197 0.07196099 0.03928414
-0.110203825 0.2540726 -0.37546712 0.14943396 0.051207434 -0.2524327 -0.32486635 0.08723139
0.29782593 -0.39202988 0.12445886 0.17152987 0.11620472 0.27857038 0.075778835 -0.092357464
-0.07608674 -0.27064112 -0.116408825 0.068465725 -0.13032262 0.08526826 -0.098587826 0.12683982
0.18779524 0.2725158 -0.0052652056 0.50191945 -0.3372516 0.2945712 0.0235491 -0.21093725
-0.061838135 0.4852344 -0.4675339 -0.38353568 0.0042122095 -0.057458743 0.046880316 -0.2546869
0.35419992 -0.009398835 -0.40102932 -0.4436761 0.19903141 -0.39877552 -0.020654358 0.058622256
-0.032588154 0.11949779 -0.14676553 0.02068165 -0.4913399 -0.024289692 0.6243946 -0.053835653
-0.0050311564 -0.050642222 -0.25846535 0.03417239 0.002975117 0.040755153 -0.13230409 -0.4219748
-0.16407119 -0.5290974 -0.33414432 -0.30331928 -0.21587197 -0.48904985 0.1323296 -0.032260317
0.0019706334 -0.35186574 -0.043623086 -0.13592817 -0.52116525 -0.44473538 -0.10532925 -0.009332823
-0.18125457 0.28916806 -0.32023796 -0.32585704 0.10779008 0.02730904 -0.076235704 -0.520126
-0.16155589 0.25780353 -0.4346468 -0.07342365 -0.4445694 0.18788871 -0.7534736 0.40102556
-0.10957427 0.2785277 0.13425034 0.2364035 0.07117852 -0.16771658 0.103114046 0.84084636
0.03500847 0.34136486 -0.2750213 0.15030102 -0.18749164 0.40329102 0.36268735 0.12861297
-0.011435582 0.18262908 0.06479163 -0.32442778 -0.00015999541 0.039771467 -0.032089114 -0.054487392
-0.22171076 -0.1361132 0.27258122 0.94625145 0.31132355 0.121792674 0.08902448 0.41059113
-0.36957464 0.014197302 0.40626997 -0.0017686823 -0.02249182 -0.709641 0.35018837 -0.33441502
-0.63345355 0.0009133005 -0.38086063 0.061019164 -0.32995266 0.32986492 0.22290964 -0.13226065
0.109852 0.16902873 -0.05806943 0.14029643 0.44787747 -0.25110224 0.19587855 -0.32352412
-0.09445579 -0.49076888 -0.32771784 -0.25282565 -0.17953204 0.43772143 0.1605152 -0.19128343
-0.028601432 -0.23011106 0.42180613 -0.12471702 -0.4344891 -0.30222487 0.45835346 0.09180829
0.056351557 -0.15140697 -0.2672309 0.26898685 -0.1424931 -0.17788646 0.09067789 -0.26636386
0.43558508 0.018311987 -0.024212059 -0.028041676 0.36833006 -0.0074771023 0.12570597 -0.5846612
-0.49809703 0.27048188 -0.31239256 -0.22536646 0.20325498 -0.38015676 -0.057966817 0.12238626
-0.20831014 0.0044737216 0.4207898 -0.03375572 0.0942142 0.030257542 0.13620417 -0.3611393
-0.10724679 0.04162237 0.43600678 -0.04650918 0.12410451 0.11661465 0.15446761 0.07925426
0.078485675 -0.18917014 0.034772187 -0.15300815 -0.14643918 0.31999898 0.20597379 0.03709166
0.16626553 -0.0943242 0.01727907 0.14705363 0.17439878 0.25666797 -0.19533873 0.2732341
-0.015760342 0.032717105 -0.23303147 -0.15911567 0.01335805 0.58965176 0.5267003 0.23754843
