ilikepaintings/weights/sidhu/RN101.pth (torch, 3039 bytes, 1 tensors)

weight f4 [1, 512]
00000000: 6fcc c5be 3f8d da3e f69b 37bf 9e3c 58bf
00000010: 9ca2 19be 8d80 393f 41a6 f1be ab48 2d3f
00000020: 2e49 d5be ca66 2abe e1c0 203f c9b8 973e
00000030: f8dc dd3e 7798 203e 4ef4 e03d 10bb 24be
00000040: d71a 203f 52a7 e83e 5699 4ebe d518 00c0
00000050: 5420 003f e0bd a93e 9ddc 863d 6d13 443e
00000060: c129 84bd de4c 433e 51ec 343f d178 2bbf
00000070: 06f5 1b3e a622 7b3e f418 82be 87b9 033e
00000080: 50d9 fc3d 35e4 37be 094d 7abd dbcc 5d3e
00000090: e710 0fbf 9711 a13e 989e 86be 2873 90be
000000a0: 228a 03bf 159c 81be 262d 483d d058 873e
000000b0: 7453 fdbd 6ddb 89be ea1f e5bd 0d18 a7be
000000c0: 8b85 43bf e569 f4be afd2 9b3c d4ff 05bf
000000d0: 81b8 c63e 9436 3cbf 975f ae3e 4633 3a3f
000000e0: e31f 0cbd 471a 34be 151d 8e3f 7e1f 2a3e
000000f0: bef6 92be 10e0 763f bf0f 59bf db4b 2ebf
00000100: 085d b1be 64ce 133f 0770 0e3e 4d5c 283e
00000110: 47e3 413e 0dd3 23be 6137 db3e 6734 c03e
00000120: 6ec7 633e 14ec 7cbe 7686 ebbe 4d8f 2abf
00000130: d9ab 073e 6d20 8cbe a3e6 123f 23b4 ffbd
00000140: dfab 8f3e 67ab 1abf 321a 0a3f 92e3 18bf
00000150: da9e 9ebe 681b ea3d 9f1f 8cbe 9a44 3a3f
00000160: c4eb 9e3e 0ef5 abbe 29d8 30bf 2fe1 5a3d
00000170: 8bad 17bf b987 11bf af95 cebc e0f9 9e3e
00000180: 4205 793d 6c31 b2bd 6b5c 843e 84ae 5fbd
00000190: bbfc f6bd 3a46 0b3f e68e 5cbf b522 933e
000001a0: e1ef 523f 0386 f63e 4c5d 963d a22e f23e
000001b0: dec0 a33e 76c9 18be 4306 353c 5930 d1bd
000001c0: 9218 d23d 8696 b43e f8d6 97bd 241c 51be
000001d0: 9460 013f 6b6c 54be f4c9 aebd 396d 333d
000001e0: bc22 28be 9b0e 61be b4f4 5c3f d4a8 c8bd
000001f0: 34f1 593e af3a 66be 600a 8cbe 74cf 953e
00000200: 7c8e 413d c945 d93e 8dfe ac3e 9681 913f
00000210: bb67 b43e 19a8 f93e b357 0e3f 0cce 063e
00000220: c536 813d 196a 86be b47f 9ebe b1b9 883f
00000230: 01cc cfbe 420d cbbe 802c 013e b5ea 44bf
00000240: df6d ea3d c36a 67be a91f a63e 7544 a3be
00000250: 8d19 203f 4535 d33e 79b0 fb3e 272d d03e
00000260: f4bd 173f e28e 94be ef76 823f 6bd0 1abf
00000270: 5090 28bf bfdc fe3e ac47 d93d 2e5b 3dbd
00000280: fa0c 193b 403b 85bf 7129 51bf 3c78 1fbf
00000290: 5464 d2bd 5b9f 61be 818d f1bd ab73 bb3d
000002a0: 01c0 723d c72d 80bd ee42 763e fb8f ffbe
000002b0: e22a 9cbe 648b 413e 42ea cb3d c617 74be
000002c0: 518d 133e 8c22 01be 41e8 d7be d93d 18bf
000002d0: b8a5 88be cdd6 2dbf 1a47 973e 7994 8bbe
000002e0: a07c 9dbd ed28 bc3e 3649 723e 42ce 9a3e
000002f0: d25b 8dbd e76e 593f 5bc7 6e3f 707c 023e
00000300: 9bdc 0a3f ead9 083f b8c6 103f 33ec 313f
00000310: c1b3 47be d9b1 d2be c957 6d3d ec24 7abe
00000320: 1f20 96be 825b a83b 8c81 d43e e2b7 11bf
00000330: 5678 5bbe 3b2d 973e 5d4f 1f3f 6c1e 6e3e
00000340: 0c4a 2b3f 28fd 223f bfaf ec3e 673f 133f
00000350: 649a 00bf a9aa ffbd e9d6 26bd 589d 743f
00000360: 8414 1a3f 7239 f23e c6a1 98be a9d9 06bf
00000370: 5079 363e 4523 1bbf a2e0 fb3c 5c5c 76be
00000380: f18c 4b3e 6f33 1ebe 0e58 d6be 2c5e 11bf
00000390: 449e a2bf 7ee7 b73d 8367 793f 0646 95bf
000003a0: 017b d7be a353 e93d 9382 b5be b0c8 94be
000003b0: 5c0c f4bd 6ef8 533f e0a7 53be 3ac1 043f
000003c0: 5e4c 183f c9e1 53bf 0123 3b3c 541d cbbd
000003d0: a9c0 a03e 12a9 913d 1f47 f63e 8331 0dbf
000003e0: f5bb 28be 30e6 6dbe ddfd ecbe aacb c6be
000003f0: f889 8f3e cae9 b4be 079a e33d 06f6 2cbe
-0.38632533 0.42685887 -0.7172235 -0.84467494 -0.15003437 0.7246178 -0.47197154 0.6768901
-0.41657394 -0.16640773 0.6279431 0.29633167 0.43332648 0.1568316 0.109840974 -0.16086984
0.62540954 0.45440155 -0.2017568 -2.0015156 0.5004933 0.33152676 0.065850474 0.19148035
-0.064532764 0.19072291 0.7067309 -0.66981226 0.15230188 0.24524936 -0.25409663 0.12863742
0.123461366 -0.17958148 -0.061108623 0.21660177 -0.55885166 0.31458732 -0.26292872 -0.28212857
-0.5138265 -0.25314394 0.048871182 0.26434946 -0.12369433 -0.2692522 -0.11187728 -0.32635537
-0.76375645 -0.4773704 0.01902136 -0.5234349 0.3881264 -0.7352078 0.34057304 0.7273449
-0.034210097 -0.17588149 1.1102625 0.16613576 -0.28703874 0.9643564 -0.8478965 -0.68084496
-0.3464129 0.577368 0.13909923 0.1644146 0.18934356 -0.15998478 0.42815688 0.3753998
0.22244045 -0.24699432 -0.46001023 -0.6662491 0.13249148 -0.2736849 0.57383174 -0.1248553
0.28060815 -0.6041779 0.5394622 -0.59722245 -0.3098057 0.114310086 -0.27367875 0.7276093
0.3103925 -0.335854 -0.69079834 0.053437408 -0.5924918 -0.5684772 -0.02521786 0.31050014
0.06079603 -0.08700833 0.2585176 -0.05460979 -0.12059923 0.5440403 -0.86155546 0.28737417
0.82397276 0.48149118 0.07342014 0.47301203 0.31983083 -0.14920601 0.011048856 -0.102143
0.10258593 0.3527109 -0.07414049 -0.20420891 0.5053799 -0.20744483 -0.08534613 0.043805335
-0.164195 -0.21978228 0.8631089 -0.097978264 0.21283418 -0.22483324 -0.27351665 0.29259837
0.047255024 0.42436054 0.33787957 1.1367671 0.3523539 0.4876106 0.5560257 0.13164538
0.063092746 -0.2625282 -0.30956805 1.0681669 -0.4058533 -0.39658552 0.12614632 -0.76920635
0.114467375 -0.2259932 0.3244603 -0.31888166 0.6253899 0.4125158 0.49158075 0.40659449
0.5927422 -0.2901526 1.0192546 -0.6047427 -0.65845203 0.4977779 0.106093735 -0.046229534
0.0023353682 -1.0408707 -0.8170386 -0.6229284 -0.10273042 -0.22033446 -0.11794568 0.09152921
0.05926514 -0.06258731 0.24048969 -0.49914536 -0.30501467 0.1890083 0.099567905 -0.23837194
0.14409377 -0.12610835 -0.42169383 -0.5946937 -0.26688933 -0.67905885 0.29546434 -0.27261713
-0.07689786 0.36749974 0.2366074 0.30235487 -0.06902279 0.8493485 0.9327294 0.12742782
0.5424287 0.5345751 0.5655322 0.69501036 -0.19502164 -0.41151312 0.057945047 -0.24428147
-0.2932138 0.0051378617 0.41505086 -0.5692121 -0.21432623 0.29526696 0.62230474 0.23253793
0.6690986 0.63667536 0.46227834 0.5751862 -0.5023558 -0.12483723 -0.040732298 0.9555259
0.60187554 0.47309452 -0.29810923 -0.52675873 0.17819715 -0.6060069 0.030746762 -0.2405867
0.19877984 -0.15449308 -0.41864055 -0.5678432 -1.2704549 0.089797005 0.9742357 -1.1661994
-0.42086032 0.113929056 -0.35451183 -0.29059362 -0.1191642 0.8280095 -0.20669508 0.5185734
0.5949153 -0.82766396 0.01142192 -0.09917703 0.31396988 0.07112326 0.48101136 -0.55153674
-0.1647795 -0.23232341 -0.46287432 -0.38827258 0.2803495 -0.35334617 0.11113363 -0.16890725
