ilikepaintings/weights/sidhu/RN50x4.pth (torch, 3555 bytes, 1 tensors)

weight f4 [1, 640]
000000 79 47 80 bd f7 62 0b 3f 96 8d 71 bf 64 62 aa be
       -0.06263632 0.54447883 -0.9435667 -0.3327819
000010 8a 40 4d 3e 31 0e b3 3d 98 bb 12 bf a1 a9 ef bd
       0.20044151 0.08742941 -0.57317495 -0.11702276
000020 35 9d 1e 3e db 4e d9 bc 27 c3 bc be 25 07 12 3f
       0.15489657 -0.026526859 -0.3686764 0.5704215
000030 bc d3 09 3f 6c 5e 19 3f 05 b2 8d 3d 9b b8 28 3f
       0.53838706 0.599097 0.0691872 0.65906686
000040 18 70 2d 3e 46 0b fb 3e f4 61 99 be 15 23 18 3e
       0.16937292 0.49032038 -0.29957545 0.14857133
000050 ef ab 98 3e d1 93 ee be ba 18 c0 3d af 7c 1f be
       0.29818675 -0.4659715 0.09379716 -0.15574907
000060 74 df eb be af bb 9b 3e 72 d6 d5 be b9 9b c7 3f
       -0.4606892 0.3041663 -0.4176517 1.5594398
000070 89 f6 b0 be 4e 62 e9 3e 33 12 eb 3e 3f 2d 15 3f
       -0.3456309 0.45582813 0.45912322 0.58272165
000080 88 eb 0d 3e 35 c2 58 3e 53 13 e4 bc 92 73 68 bf
       0.1385938 0.21167834 -0.027841246 -0.90801346
000090 01 49 27 bf ae 82 d4 be c7 4b b1 3d 6e 94 99 3e
       -0.6534577 -0.4150595 0.086570315 0.29996055
0000a0 c1 a2 7a be c4 f4 95 3e dd 91 0b bf 2b 2f 13 be
       -0.24476148 0.29288304 -0.54519445 -0.14373462
0000b0 22 6c 78 3e aa b7 21 bf a9 5f b0 be 20 74 45 3e
       0.2426 -0.63170874 -0.34447983 0.1928258
0000c0 ae 12 18 be cc 63 4a 3e c4 7d 34 3e eb 68 08 3f
       -0.14850876 0.19764632 0.17626101 0.5328509
0000d0 7f b7 58 be bc 7b 10 bd 5f 21 fb 3e ab 8f ce be
       -0.21163748 -0.035274252 0.49048898 -0.40343985
0000e0 69 50 de be 17 0d 4a 3f b7 95 25 bf 6a ec 18 be
       -0.43420723 0.78926224 -0.6468157 -0.14933935
0000f0 00 8b 88 3e 79 f2 71 bd cc 07 06 3f ae 85 8f be
       0.2666855 -0.05906913 0.5235565 -0.28031677
000100 b9 7e 92 3f f6 0d 0f bf cc 78 a4 be 85 12 48 3f
       1.1444923 -0.5588068 -0.3212341 0.7815326
000110 c8 c6 63 be 43 86 73 3c 3d 18 14 bf 20 e4 11 3c
       -0.22243798 0.014863553 -0.57849485 0.008904487
000120 1b 4b e1 3d a9 b7 e6 3e d4 89 a0 be ac a2 cd be
       0.11000653 0.45061997 -0.31355155 -0.4016317
000130 8d 9a 8a 3e a5 62 c6 3e 3e 42 09 3f 64 ea d8 3e
       0.27071038 0.38747135 0.536167 0.42366326
000140 e2 b8 74 3e 8f 8c 2a bf 14 e4 8f be 9e 1a b7 3e
       0.23898652 -0.66620725 -0.28103697 0.35762495
000150 75 ca b1 3e 0e 69 39 3d 5d 11 1f bf a0 c3 a1 be
       0.34724775 0.045266204 -0.6213587 -0.31594563
000160 69 b7 68 3f 3e 03 95 bd 85 fe 91 bf ad 30 7d 3e
       0.9090486 -0.07276009 -1.1405798 0.247256
000170 ff fa 9a be 90 1f 0e 3f 9c 1e 25 3c 78 48 67 3e
       -0.3026962 0.5551691 0.010078099 0.22586238
000180 38 b1 09 3d 06 2f a1 3e 15 a6 8b bd 4c 24 00 be
       0.033616275 0.3148119 -0.06818787 -0.12513846
000190 47 a2 a1 3d 7e 14 ca be 87 f1 0f be 6e e6 3e 3e
       0.0789228 -0.3946876 -0.14056979 0.1864259
0001a0 ca 81 e9 bd 85 8a 84 bd ef 12 22 bf 20 7d 59 3e
       -0.114017084 -0.06471733 -0.6331014 0.21239138
0001b0 3f cf 3e bd 42 9f d5 be 3e de 4d be 76 d1 fc ba
       -0.046584364 -0.41723067 -0.2010431 -0.0019288498
0001c0 69 59 0c be 1a d8 4a bf b6 5d 68 3e 9f 9d f1 bd
       -0.13705982 -0.79235995 0.22691998 -0.11797642
0001d0 24 92 65 bf bd d3 60 be a5 e0 a8 3e f7 36 86 3d
       -0.8967612 -0.21955772 0.3298389 0.065534525
0001e0 30 a2 55 bf 4c 47 69 bf be bd 5d be dc 3a 3a 3f
       -0.83450603 -0.91124415 -0.21654412 0.7274606
0001f0 94 0d ae 3e 55 af 5a be 0b f7 07 3f 84 48 13 bd
       0.33994734 -0.21355946 0.5311133 -0.03595783
000200 15 85 d1 be de 08 1f bf 6e 52 ea be c3 b4 0f 3e
       -0.40921846 -0.62122905 -0.45766014 0.14033799
000210 52 5c f4 3e c3 13 9c bd 42 f8 31 3e 50 59 0d 3e
       0.47726685 -0.07620957 0.17379859 0.13803601
000220 e6 62 0e 3f d0 30 d5 3c f1 d5 a2 3f 33 14 be be
       0.5561966 0.026024252 1.272154 -0.37124786
000230 fe 6e 7a 3e f7 27 a3 3e ce cf 24 bc 9a 66 0e 3f
       0.24456403 0.31866428 -0.01005931 0.5562531
000240 ff 75 8a bf 25 2b 30 3f 5e dc 25 bf 4e 1c 36 3e
       -1.081726 0.68815833 -0.6478938 0.17784235
000250 8c 63 39 be 7c 07 d0 3e 4f 07 a9 3e 68 67 b3 be
       -0.1810438 0.4063071 0.3301339 -0.3503983
000260 f2 4e 95 bd f5 ca 08 3f 39 1a 00 be 05 3b 1d bf
       -0.07290448 0.5343469 -0.12510003 -0.6141818
000270 1e 9c a0 be a2 f5 e5 3e ce 38 12 bf 6c 3c 32 be
       -0.31369108 0.44913965 -0.5711793 -0.17405862
000280 ad 43 38 3e 2e e3 96 be 09 14 58 3e 50 51 6a 3e
       0.17994566 -0.294702 0.21101393 0.22882581
000290 2e dc a6 3f 50 f4 c3 bd df 6b 4c 3e 8b 39 b9 be
       1.3035944 -0.09568083 0.19963025 -0.36176714
0002a0 05 d0 ce be e1 5b 9a bc 71 77 08 3f 6f 53 e3 be
       -0.4039308 -0.01884264 0.53307253 -0.44399592
0002b0 56 fb 44 3f 56 2b 24 bf 1a 61 be be d9 df 67 be
       0.7694601 -0.64128625 -0.37183458 -0.22643985
0002c0 0f cc 00 3f 84 5f 46 be 7b 22 b6 3e 67 75 7e 3e
       0.5031137 -0.19372374 0.35573182 0.24849473
0002d0 f5 2b bd be 04 8d b3 be 0a 61 ef 3e fb 84 24 be
       -0.369476 -0.35068524 0.46753722 -0.16066353
0002e0 88 0b 3e 3f d3 9b 17 be 86 c9 49 be 38 a0 32 3d
       0.74236345 -0.14805536 -0.19705781 0.043609828
0002f0 8f 68 0b bf f3 78 4c be 46 b4 14 bf ca e7 f8 be
       -0.5445642 -0.19968013 -0.58087575 -0.4861434
000300 ad 63 8e be fd 27 77 3d 1a 34 06 3d 2b a3 29 3f
       -0.27810422 0.06034087 0.03276453 0.662646
000310 1a 3c a1 be c9 46 99 3d 28 29 93 3f 5c 98 a2 be
       -0.31491166 0.07484204 1.1496935 -0.31756866
000320 20 d4 82 3f ce af dd be 8a fa 3e be cd 49 67 3e
       1.0220985 -0.4329819 -0.1865026 0.22586747
000330 24 15 0a be 6e 71 37 bf 0f ec 23 3d df 91 61 bd
       -0.13484627 -0.71657455 0.040020045 -0.055070754
000340 ed d1 4b 3e 46 81 77 3f 15 38 5a 3d 81 92 10 be
       0.19904299 0.9668163 0.05327614 -0.14118387
000350 fd 06 50 3d ad ac 01 bf 55 83 cc bd 28 f4 6c bf
       0.050787915 -0.5065411 -0.09985987 -0.9256005
000360 48 16 13 3c e3 28 cd be 67 2e 5f be 5b 29 00 bf
       0.00897748 -0.40070257 -0.21795045 -0.50063103
000370 da eb 34 3e 04 ce 5b 3e 96 05 1e 3f 8d 05 32 bc
       0.17668095 0.21465307 0.61727273 -0.010865581
000380 4b 2c 90 be 25 fb 0f be fe b9 2d 3e 4f b0 8b be
       -0.28158793 -0.14060648 0.16965482 -0.2728295
000390 17 2e 3a 3d c5 4d a3 be 25 4a e1 3e f5 75 b7 3e
       0.04545411 -0.3189527 0.4400188 0.35832182
0003a0 26 84 42 be a3 d4 2a be 8a 8a 8e bd 1f 22 37 3f
       -0.18995723 -0.16682677 -0.06960018 0.7153644
0003b0 76 d2 52 3d 2b 67 fd be 2c 49 d1 be 2a f8 3c 3c
       0.051470242 -0.49492773 -0.40876138 0.011533776
0003c0 d2 67 54 bf d3 46 04 bf 06 c8 b8 3e 48 01 f7 3e
       -0.8297092 -0.5167057 0.36090106 0.48243165
0003d0 f0 20 b4 be db dd a0 3e 0b 9c dd 3d 34 a3 14 be
       -0.3518138 0.31419262 0.108207785 -0.14515382
0003e0 aa 8c 33 3f 2a 44 0c bc 8f 77 63 3f f9 aa 38 be
       0.7013651 -0.008561173 0.88854307 -0.18033971
0003f0 27 e6 85 bd 4e 66 1b be 06 b0 04 3e 5f c3 95 3d
       -0.06538039 -0.15175745 0.12957773 0.07312655
