ilikepaintings/weights/sidhu/RN50x64.pth (torch, 5095 bytes, 1 tensors)

weight f4 [1, 1024]
00000000: e798 45be a264 c0be 771b 0ebf b7fa 5dbe
00000010: 5bf2 93bd f366 97bd 7e92 2ebe 4c33 cfbe
00000020: 985a 593d 89f7 8abd 8642 ec3d 9ea7 49be
00000030: e3f3 823e c8fd c4be 93c6 39bf 04fc a83e
00000040: d498 e9be 9c87 ebbe 483c 083f 75fb a13e
00000050: e3c8 253e aa9f 2dbd b3b6 dd3c b0ec 21bf
00000060: 211c 53be da46 c8be 8583 0cbd 539e eb3e
00000070: c949 0bbf cdc7 71be 673f a1bc 0da7 b73e
00000080: 3892 9bbd af30 9bbe c89f 0dbb 3317 41bd
00000090: 1dc8 39be 0eba 87bc 0fd1 b23e 8d99 9f3e
000000a0: 4d82 97bd efde 89be f8b2 d1be 70d4 3ebd
000000b0: f0f1 cf3e 3bfd 93bd db9b 32be 64d4 41be
000000c0: 9461 7fbc 2fac cb3e e0c9 e93e abdc b0be
000000d0: ed86 e33e 1562 e3bc 189a 80be cce3 3d3f
000000e0: 63b9 7f3e 5910 9ebe 5b47 8d3d 783a 24be
000000f0: ad7d f93e 0416 6bbe 5ad8 4fbf 7c80 ee3e
00000100: c1ec c63d f771 5cbe 3259 663e eacf e6be
00000110: 059d 78be ecd6 df3e bde3 1abf abe0 013e
00000120: 95f2 95bd 52bb 39bd fa50 b43e 2f6e 1e3e
00000130: 3a61 303f 70c8 32be b1a6 0f3e 39a6 513e
00000140: 16bd a33e 669d 1c3c 2bd8 39bd 4284 b7bd
00000150: d45b cc3e c821 43be 4d3e 8ebe 9e27 6ebd
00000160: 0590 0fbd d43f a2bd 2400 ef3d 7b43 1b3f
00000170: 73d8 fdbe ab5e 693d 7bd4 2c3d 32d2 9a3e
00000180: 029d 14bd 5a5b ab3e 0c12 95be a1f9 153e
00000190: a357 f13b b4d5 01be 1590 bfbc 80b7 0a3f
000001a0: b79f 903e 6083 1b3f 1fbc 3ebd 654f d53c
000001b0: 8044 39be e443 393e d27e 85be a228 c1bd
000001c0: 12c5 1fbf da54 b83c 2dfb 5f3e 9637 29be
000001d0: 4b36 123f 6624 0d3e a5c7 a53e 19dc a33e
000001e0: b28b f43e 2479 d33d a079 e63e c090 2ebd
000001f0: 9406 ad3e 1c92 b83e f7f8 34be 3822 803e
00000200: 5474 313e a206 aa3d 5243 35bd 161b 78bd
00000210: d580 07be fae7 143e 740f 693e b253 2ebe
00000220: 9d1b b73e d89d e4be 74d2 95be 4015 02bf
00000230: c26a 08be ca93 9a3e de0b 90be f415 08be
00000240: b526 e8bd 74fe 493c cc11 c13c 55a7 b53d
00000250: 420a 913d 860c 07be 8699 e0be 910c ddbe
00000260: c55f 4ebe 684e 7abd d5bd 4a3e 223d 91be
00000270: ee5b fe3d e787 483e ecac 463e 8f08 813e
00000280: d0b9 593e 519f 80be 346b 30be df10 cbbe
00000290: d896 293f 1043 263e 9393 6b3e f1cd 383f
000002a0: b63d b2be a3dd 263e 8e8c 1bbe e342 08be
000002b0: 12c0 d6be 07c1 89be 1d70 f53e 7a23 163f
000002c0: da57 983e fd10 46be a640 743e bd1c 28be
000002d0: bd48 0abe 3364 36bf e616 233f f6af 083e
000002e0: 4ea8 94bd 611d aabe fe67 df3d e778 35bf
000002f0: 7959 ba3e 4226 37be abc8 b63e 47d3 dcbe
00000300: a416 043d 6ad2 7f3d 7a66 58bd 44a5 0bbf
00000310: f412 013f 2461 4f3e aadc afbe f357 3ebe
00000320: 91fd 5dbe 9175 83be ba53 b53e 5599 cb3d
00000330: fcc4 203f 0fd9 82bd b304 d53c 313d f83d
00000340: 058c fbbd d31c 123e d186 bf3e 9219 a7be
00000350: ce9e 80bd 355c 5e3c 4d5f 72bd 65da 303e
00000360: b963 fe3e dbe1 843e c0b2 3d3f 4a9e 8b3e
00000370: 9a44 1abe 4cb1 2dbc 2ec2 ebbd 9a3a 5abe
00000380: 251d b6bd eeaa d6bd db9b 163c df00 84bd
00000390: 9c11 f73e 98f9 653e 30ac 5f3d 3404 3abf
000003a0: 7bce 643e 492f f23d 73d7 883e c6a4 d13e
000003b0: 3f53 da3d fa13 073f 249f 0b3f ea85 77bd
000003c0: 8a09 c03e 2679 03be ee65 fb3d 0f8e f03d
000003d0: 2a21 cb3e ddbe 82be 1683 40bd ab69 ff3d
000003e0: c707 87bd 4aba a9bb d6a8 aebe 4505 78be
000003f0: b687 6c3d 582b 1a3e ef3a 70be 3b56 f83c
-0.19296609 -0.37576777 -0.5551066 -0.21677671 -0.0722396 -0.07392683 -0.1704807 -0.40468824
0.053064913 -0.06785495 0.11536126 -0.19692847 0.25576696 -0.3847487 -0.72568625 0.33004773
-0.4562441 -0.460019 0.5321698 0.3163716 0.16189913 -0.042388596 0.027064657 -0.6325178
-0.20616199 -0.39116555 -0.034305114 0.4601923 -0.5440946 -0.23611374 -0.019683553 0.35869637
-0.075962484 -0.3031058 -0.002161013 -0.047141265 -0.18142743 -0.01656821 0.34925124 0.31171837
-0.073979 -0.26927897 -0.40956855 -0.046589315 0.4061427 -0.07226034 -0.17442267 -0.18928677
-0.015587229 0.39779803 0.4566183 -0.34543356 0.44438878 -0.02775673 -0.25117564 0.74175715
0.24973063 -0.30871847 0.068983756 -0.16037929 0.48728696 -0.22957617 -0.811895 0.465824
0.09713126 -0.21527849 0.22494963 -0.450805 -0.24278648 0.4371866 -0.6050375 0.1268336
-0.073216595 -0.04534466 0.3521803 0.15471719 0.68898356 -0.17459273 0.14028431 0.20473565
0.319802 0.009559011 -0.04537217 -0.08960773 0.3991381 -0.19055855 -0.27781907 -0.05814325
-0.035049457 -0.079223305 0.11669949 0.6064984 -0.495792 0.056975048 0.042194825 0.3023849
-0.036282547 0.33468133 -0.2911533 0.14646007 0.0073651834 -0.12679178 -0.023384133 0.5418625
0.28246853 0.6074734 -0.046566125 0.026038835 -0.18092537 0.18092304 -0.2607332 -0.09431578
-0.6241008 0.022501398 0.2187316 -0.1652511 0.57114094 0.13783416 0.3237888 0.3200386
0.4776283 0.1032584 0.45014668 -0.042618513 0.3379408 0.36048973 -0.17673098 0.25026107
0.17329532 0.08302046 -0.044253655 -0.060572706 -0.1323274 0.14541617 0.22759801 -0.17024115
0.35763255 -0.44651675 -0.29262125 -0.50813675 -0.13321975 0.3019088 -0.28134054 -0.13289624
-0.11335508 0.012328733 0.023568057 0.08869807 0.07082035 -0.13188371 -0.4386713 -0.4317365
-0.2015372 -0.06110993 0.19798978 -0.28366953 0.12419878 0.19583093 0.19401902 0.25201842
0.21262288 -0.2512155 -0.17228395 -0.3966131 0.66245794 0.1623652 0.23005514 0.7218924
-0.34812707 0.16295485 -0.15190336 -0.13306765 -0.41943413 -0.2690508 0.47937098 0.5864788
0.29754525 -0.19342418 0.23852786 -0.16417213 -0.1350431 -0.7124664 0.63706815 0.13348374
-0.07258664 -0.3322554 0.10908507 -0.7088761 0.36396387 -0.17885688 0.35699973 -0.43129942
0.032248154 0.062456526 -0.052832104 -0.5454905 0.50419545 0.202519 -0.3434804 -0.18588237
-0.21678759 -0.25675634 0.3541544 0.09941355 0.62800574 -0.06389057 0.026003217 0.12121046
-0.12282566 0.14268808 0.37407544 -0.32636696 -0.062802896 0.013571789 -0.059172917 0.17270811
0.49685457 0.25953564 0.74100876 0.27269202 -0.15065232 -0.010601353 -0.11511646 -0.21311417
-0.08892278 -0.10481821 0.009192432 -0.06445479 0.48255622 0.22458494 0.05460757 -0.72662663
0.22344391 0.11825425 0.26726875 0.40946025 0.10660409 0.52764857 0.54539704 -0.060430445
0.37507278 -0.12839183 0.12275301 0.117458455 0.3967374 -0.25536242 -0.047000013 0.124713264
-0.0659328 -0.005179678 -0.34113187 -0.2422076 0.05774661 0.15055597 -0.23459981 0.030314555
