ilikepaintings/weights/sidhu/RN50x16.pth (torch, 4071 bytes, 1 tensors)

weight f4 [1, 768]
000000 17 10 2a be d0 cc 77 3e 13 2e 5d be 07 6b 90 be
       -0.166077 0.24199224 -0.21599607 -0.28206655
000010 fa 75 1d 3f b5 d3 1a be c6 f6 34 be da 17 13 be
       0.6150814 -0.15119822 -0.17672262 -0.14364567
000020 a3 0f 99 be 75 dd 17 3f b1 77 ae be c9 0a 7e bd
       -0.29894742 0.5932229 -0.34075692 -0.062022004
000030 14 77 d5 bb f8 09 ab be 37 29 31 bf e7 a6 71 bf
       -0.0065144394 -0.33406043 -0.69203514 -0.943953
000040 0c d6 73 bf d5 9c 35 3e 4a 17 ef 3c 67 7a 39 bc
       -0.95248485 0.17735608 0.02918591 -0.011320687
000050 b1 d6 df 3e 69 e6 f7 3e cb 98 e8 3e 23 0d 47 3f
       0.43718484 0.48417976 0.45429072 0.7775442
000060 6a 3c 05 3f 48 6d c0 bc 97 a7 3d 3f 94 04 bc 3d
       0.5204531 -0.02348961 0.74083847 0.09180561
000070 1e 7c e0 bc 77 67 7f 3e d9 49 f8 be 61 62 7b 3e
       -0.027402934 0.24941812 -0.4849384 0.24549247
000080 e4 1f e5 bc fc 93 67 3e bc 38 1a ba 64 cf 6d bf
       -0.027969308 0.22615045 -0.0005883088 -0.9289458
000090 c6 e0 f3 be a7 f4 23 bf 9b d9 0c 3c 95 37 0d bd
       -0.47632426 -0.64045185 0.008596803 -0.034476835
0000a0 b4 5d 7b 3e 3e f3 a9 3d a4 9e b6 3e fe cd 21 3f
       0.24547464 0.08298348 0.35667908 0.63204944
0000b0 cf f3 b8 3f 8e 0f 9b 3e ab 78 ed 3e fb 0d b6 3d
       1.4449404 0.30285305 0.46381125 0.08889385
0000c0 17 8b 4c 3e e2 a2 2f bf 41 57 7c 3d 9f ed e9 be
       0.19974934 -0.68607914 0.06160665 -0.45689103
0000d0 1a 28 77 3e 61 14 fe 3e 92 fe 18 3e 26 c9 78 3e
       0.24136391 0.49624923 0.14940861 0.24295482
0000e0 5b e9 ca be 46 43 0b be 8a 0a 2e bf cf 2b a2 be
       -0.3963116 -0.13599882 -0.6798483 -0.31674048
0000f0 58 d5 95 bc 12 62 86 3e 00 34 f5 3d fa 5f 52 be
       -0.018290207 0.26246697 0.11972809 -0.20544425
000100 a3 eb ef bd 07 b0 83 3e 6c 68 86 3c 18 5a 77 3e
       -0.11714866 0.25720236 0.016407214 0.24155462
000110 31 b7 86 3e da af 29 be 1f fe 2d bf 53 b3 c0 3e
       0.2631164 -0.16570988 -0.67965883 0.37636814
000120 19 22 a4 3e 18 f2 16 bf bb bb 39 be dd 78 ba 3d
       0.32057264 -0.58963156 -0.1813802 0.09105084
000130 e4 e6 96 3e 4f 00 1c be 80 69 8c 3d 55 59 37 bf
       0.2947303 -0.15234493 0.0685606 -0.71620685
000140 1d 05 e6 3e 60 77 ab 3d 17 25 16 be 15 79 0f bd
       0.44925776 0.08372378 -0.14662586 -0.035027582
000150 2e 0f 2e bf 15 7c 08 bd 44 b3 c4 be 9a 28 6a 3e
       -0.6799191 -0.03332146 -0.3841802 0.22867051
000160 3b 15 ec be 01 6f 07 bf 7e 7d 16 3e d8 d8 91 be
       -0.46109948 -0.52903754 0.14696309 -0.2848575
000170 ed 94 16 be c0 48 98 3e 55 68 be bd 9e d7 27 3f
       -0.14705248 0.29743004 -0.092972435 0.6556338
000180 d2 2a a7 be 30 98 a3 be 47 3d 09 3f 16 c7 30 bd
       -0.32649857 -0.31952047 0.53609127 -0.043158613
000190 bf f8 58 bd 67 8b 04 bf b1 80 b3 bd 9f 75 3a bf
       -0.052971598 -0.5177521 -0.0876478 -0.72835726
0001a0 b9 73 e4 bd 5d ca a8 3e b9 05 da 3e 35 d9 60 be
       -0.11154885 0.3296689 0.4258249 -0.21957858
0001b0 32 04 09 3d 32 60 00 3e 19 52 d2 3e 89 a2 dd 3e
       0.033451267 0.12536696 0.4107826 0.43288067
0001c0 1c 98 13 be 9a 90 bd 3e 3d 7e 42 bf 60 d8 d4 3c
       -0.14413494 0.37024385 -0.75973874 0.025982082
0001d0 0e 60 b3 bc 1e 69 c0 bd 01 8a 8c 3e f0 c2 c8 bd
       -0.021896388 -0.093950495 0.2744904 -0.098028064
0001e0 f6 92 7b 3e dd 9f 1c 3e 29 b7 3f 3d 67 23 bf bc
       0.2456778 0.15295358 0.046805535 -0.02333231
0001f0 f0 8c d6 3e 4b ad 89 bc 9e ee 18 be aa ed e0 3e
       0.41904402 -0.016806265 -0.14934775 0.43931323
000200 1d a5 1d 3f ee d1 ac bf 16 6f 25 3e a2 b9 11 3e
       0.6158007 -1.3501565 0.16155657 0.1423097
000210 4e 55 f0 3c b4 ff cd be ea 3e 93 bd 6d 09 30 be
       0.029337551 -0.40234149 -0.07189734 -0.17191096
000220 45 37 aa 3e 57 32 f2 be 1d 0f 1b bf ce b2 bd be
       0.33245292 -0.4730403 -0.60569936 -0.3705048
000230 33 f8 23 be c5 bc 82 3e f4 0e 42 be 82 fb 99 3e
       -0.16012649 0.25534645 -0.18951017 0.30074698
000240 f9 79 2a 3e b9 9e 98 3e 37 4c 10 3f 6a ee 24 3f
       0.16648091 0.29808596 0.56366295 0.6442629
000250 53 33 71 3e 00 df 5b 3f b8 7e c3 be 5b c8 e3 be
       0.23554735 0.85887146 -0.38182616 -0.44488797
000260 1a 60 c5 be 1a 78 a1 be ed 19 46 3e 9a 37 d6 be
       -0.38549882 -0.31536943 0.19345827 -0.41839296
000270 f3 7c a6 3e 18 41 01 3e 34 32 ad be ef 1e 16 be
       0.32517204 0.12622488 -0.33827364 -0.14660238
000280 6d bb 35 3e 93 5e 9d be 57 24 d0 bc a8 4a 40 be
       0.17747279 -0.30736217 -0.025407953 -0.18778479
000290 83 97 85 3f bb b5 b5 3e ef a7 ed 3d 38 3e 15 bd
       1.0436863 0.35490212 0.116042964 -0.03643629
0002a0 9d 19 fc be e0 e5 64 bf ca 9d 00 3b 25 5b 9a 3c
       -0.4923829 -0.8941326 0.00196253 0.01884229
0002b0 19 79 ac 3e 16 d8 25 be 69 e1 60 be 27 ad 6d 3e
       0.3368614 -0.16195711 -0.21960987 0.23210584
0002c0 ec 2e 30 3e 3e 63 8b 3d 1a 07 30 3c db 53 1a be
       0.172054 0.06806038 0.010743881 -0.15071051
0002d0 66 79 aa bc 55 7d 41 bd d2 75 39 3e 80 a6 78 be
       -0.02080984 -0.047238667 0.18111351 -0.24282265
0002e0 45 64 0d 3f ce 39 4f 3e d8 e9 eb 3e 52 95 8b 3e
       0.55231124 0.20236894 0.46076846 0.2726236
0002f0 2f bf 26 bf ae 64 14 bf e3 4f 37 be f0 2e ab bf
       -0.65135473 -0.57966125 -0.17901568 -1.3373699
000300 21 4a 2e be 25 cb 25 bf 1c 06 76 3e 4b a1 2e bf
       -0.17020465 -0.647631 0.24025768 -0.68214864
000310 cb 92 9e 3c bd bd 91 bf 80 c3 18 bf cf df 13 be
       0.019357106 -1.1386029 -0.5967331 -0.14440845
000320 ec d7 01 3e b5 aa 39 3e a1 5a f5 be d3 ad bc 3e
       0.12680024 0.18131526 -0.47920707 0.36851367
000330 62 3b 29 3e 7e 8e 10 bf 53 40 b9 bd f7 44 c8 be
       0.16526559 -0.56467426 -0.09045472 -0.39115116
000340 8b 8e 67 bd ee df b9 be 27 32 3f 3e 14 6b 5a bc
       -0.056532424 -0.36303657 0.18671475 -0.0133311935
000350 30 f2 6a be 00 12 bf be 7a 53 2f bf b5 0a ed 3b
       -0.2294395 -0.3731842 -0.6848675 0.0072339424
000360 7c 04 94 3e d7 c7 6f bf 3f ae ea bc b0 f8 56 3e
       0.2890967 -0.93664306 -0.02864754 0.20993304
000370 07 8a d5 3e 34 7e ee bb 0b ff 6c 3e fb 77 b8 be
       0.4170687 -0.007278228 0.23144166 -0.36029038
000380 c6 9b 2e bf 62 a7 2d 3d 07 e3 f9 3e 21 59 90 be
       -0.6820644 0.042395957 0.4880602 -0.28193
000390 0c d7 29 be 71 b4 c7 3d 7b a7 67 be b8 e3 8d bf
       -0.1658594 0.09751213 -0.22622482 -1.1085119
0003a0 0b 52 fa be e9 31 7f 3e a6 61 40 3e 71 00 9a be
       -0.4889072 0.24921383 0.1878725 -0.30078462
0003b0 8c 4f b0 3d 59 ac b4 3d 16 74 7d 3e 3f 47 c8 bd
       0.08608922 0.08821935 0.24751315 -0.09779214
0003c0 5f 25 27 3e 5c 64 95 3e 17 5c a0 be f3 62 1a 3e
       0.1632285 0.2917813 -0.3132026 0.15076809
0003d0 fa e9 d9 3d 18 c0 0f be 87 79 22 3f 8a cd df bd
       0.106403306 -0.14038122 0.63466686 -0.10927875
0003e0 c3 cc ad 3d 04 76 60 be 6f 68 5e 3e bf b6 0b 3f
       0.08486321 -0.2192002 0.21719526 0.54575723
0003f0 d8 5d 15 bf 53 d0 fe be 00 fe 3c 3e 20 5a 5f 3d
       -0.5834632 -0.49768314 0.18456268 0.05452931
