ilikepaintings/weights/sidhu/RN50.pth (torch, 5083 bytes, 1 tensors)

weight f4 [1, 1024]
00000000: 97a4 42be fcd9 52bd 7380 d4be 0775 8fbb
00000010: 9e1b fd3e 1730 7bbe 7a96 0bbb e68f 22be
00000020: 83aa 08be 7ed7 22bd 6211 8c3e 2cba 11bf
00000030: 4d57 143f 39d9 d33d 08d8 b7be 6342 5a3e
00000040: 9008 013d b854 273d b1c8 7bbb c235 b9be
00000050: 7620 a6be 4baa 873e b4ad 3f3e 8b2d 2fbd
00000060: 0a10 89be 0dd4 76be 6a41 e6be 252b 94be
00000070: 4677 aebe 181f ca3e 20ee 6c3d 819b 3cbe
00000080: 293c 6e3c 083e 3d3d 400b e1be 3185 12bd
00000090: 5434 433e 34f2 d53d 53a4 87be c162 16be
000000a0: 8e74 273e 73f1 28bf 8614 44be 1216 bcbd
000000b0: 2d4f 2c3e 10a6 373e 6869 4a3c 3b1d 983f
000000c0: 597d e2be a837 1c3f 6a39 7e3e 7902 2a3e
000000d0: 00f3 703f 0e37 3fbe 56e2 d5be 8095 983f
000000e0: abdb 8b3e 1552 58be e0b0 243e 20c0 303e
000000f0: a2f4 0c3f 56df b2be 50bf c43d a8d2 113d
00000100: f653 5dbd a664 c0bc 5152 623c 0278 d73d
00000110: e1b8 b8bc 7669 d7be c921 f3bc 80a4 563e
00000120: 0259 b8be dd68 4bbe c6be 2cbe 06e0 fbbe
00000130: a2b4 05be 27d1 59be 61a9 673c 2037 443c
00000140: 911b a4be 1734 353f 8843 8c3e 4c3e 70be
00000150: ebd2 ecbd f1b1 e1bb 80bb 763e 2488 9fbd
00000160: 11d1 853c b608 9a3f b7a3 fbbd 1ac2 3abe
00000170: c955 4d3e 9984 5dbe 54f0 43be 653b 48bf
00000180: 4276 1c3e 6337 3ebe c722 3fbf d2ee ebbc
00000190: fb75 a8be fd7d 0a3f 21ab 8c3c 545d 17be
000001a0: d950 d5bd 3f25 8fbe a664 e63e b9d1 8fbe
000001b0: 8644 1bbe a336 e7be dfff 5cbf a925 0a3f
000001c0: 31d7 dabd 8edc 673d f518 ae3e d1dc f33c
000001d0: c2ba 103e 6a6e fbbb f5f7 a8be 9ccc f6bd
000001e0: b9a8 88be 3571 c8bd 2944 b73e 4031 cf3c
000001f0: 0518 debd ad0f c3be fc2a 693c 0e3d 6bbd
00000200: 5d0a a5be f500 2cbf 075b 323d 42c7 083f
00000210: 97e8 2cbe a2ed ca3e 7ac2 3ebe 0313 413e
00000220: e7ed 3c3d 46a2 3a3d d87c 0fbf fc62 19bf
00000230: 9518 0ebd 174f 73bc 2d29 fc3e 89ae 563e
00000240: cb0b 69be 345c 02be 6e31 933d 89bc 283e
00000250: 5064 893d 1313 de3e b388 163d b7c2 30be
00000260: cd62 033f 9cbe 033f e7e2 f93b 5a08 083f
00000270: 2c87 863e 0560 cb3e 3453 ed3c ff4e 233f
00000280: a67c a8bd 96c2 56be b3df c0bd fbed 123e
00000290: 9e13 b7be 2237 513d 586e b33e 5eda 023e
000002a0: bbf0 7a3c b8fd afbe 367b 81be af2b 9b3a
000002b0: 5b72 ee3e fa66 c93e 37e0 03be ef6d 00bf
000002c0: 86c7 22be aad1 c8be 7a68 79be ced9 983c
000002d0: 01d2 3abd e510 1e3f 6c03 a23d aff5 aabe
000002e0: 5833 51bc d0cd da3e 2d84 923d b679 4cbd
000002f0: cc17 cdbd 9485 9e3e b066 24be 2353 9e3d
00000300: b320 bcbd 6a4c 03bc 6387 1a3f 5220 733d
00000310: 5c60 f1bd 46fc e93c 8c6b acbd 45d0 2d3d
00000320: 707b 61bc df68 403e ada9 023f 93a9 f03e
00000330: 2188 3a3e 0315 84be 1ef9 413f f2f0 c13d
00000340: c223 9e3e b04b 8fbb efc2 a6be 70b6 283f
00000350: d944 dbbc 3cf9 11bf 15b2 f23d 881c e83e
00000360: b1ac c73e 336b 96bd c619 b63d e9e5 e73c
00000370: 2613 eabb 8d42 fabd ac65 a93d 6120 9a3f
00000380: 254c e5bc e8f9 383d 4279 49be 3076 883e
00000390: 01bc c83c 58cc 073d 67af f9be 947e 333e
000003a0: 726e 153e b0e2 b8bd 9e51 3dbe 875c 2c3d
000003b0: 2d13 963e c5e9 dcbe a831 023d 55aa 7ebf
000003c0: 7f29 83bd 85b7 32bd e9fd ca3e a12f e53d
000003d0: cbf3 fdbd 227a f03e 1b1f 93bd 22dc a43c
000003e0: b623 053f 20fb 96bd a437 ee3d f376 fd3e
000003f0: e6fd de3a 50b5 c5be 6521 9f3d 17b0 c33e
-0.19008099 -0.051477417 -0.4150425 -0.0043779644 0.49435133 -0.24530064 -0.0021299408 -0.15875205
-0.13346295 -0.03975629 0.27357012 -0.569247 0.5794571 0.10344166 -0.35907006 0.21314387
0.031502306 0.04085228 -0.0038419182 -0.36173826 -0.3244664 0.2649711 0.18718606 -0.042768043
-0.2677005 -0.24104328 -0.44971782 -0.28939167 -0.34075373 0.39476848 0.05784428 -0.18418695
0.0145407105 0.046201736 -0.43953896 -0.035771552 0.1906293 0.10446587 -0.26492557 -0.14686109
0.16353056 -0.6599342 -0.19148454 -0.09183897 0.16827078 0.17934442 0.012354232 1.188392
-0.44236258 0.61022425 0.24826589 0.16602506 0.9412079 -0.18673345 -0.41774243 1.1920624
0.2731603 -0.21125062 0.16083097 0.1726079 0.5506078 -0.34936017 0.096068025 0.035601288
-0.05403515 -0.023485493 0.013813571 0.105209365 -0.022549095 -0.42072648 -0.029679196 0.2096119
-0.36005408 -0.19864221 -0.1686965 -0.49194354 -0.13057187 -0.21271192 0.014139504 0.011976033
-0.32052281 0.7078261 0.27395272 -0.23461264 -0.11563667 -0.0068876673 0.24094963 -0.07789639
0.016335042 1.2033908 -0.122870855 -0.18238106 0.20052256 -0.21632613 -0.19134647 -0.7821563
0.15279487 -0.18575816 -0.7466244 -0.028800402 -0.32902512 0.5409849 0.017171444 -0.14781696
-0.10415811 -0.27958104 0.44998664 -0.28089693 -0.15162858 -0.45158872 -0.8632793 0.53963715
-0.10685576 0.05660682 0.34003416 0.02976838 0.14133742 -0.0076730745 -0.33001676 -0.12050745
-0.26691225 -0.097872175 0.3579419 0.025292039 -0.10844425 -0.38097897 0.01423144 -0.057431273
-0.3223447 -0.6718896 0.04354384 0.53429043 -0.16885601 0.39634424 -0.18628874 0.18854909
0.04612532 0.045564912 -0.5604987 -0.59916663 -0.034691412 -0.014850399 0.49250165 0.20965017
-0.22758405 -0.12730485 0.07187162 0.1647817 0.06708586 0.43373927 0.03675146 -0.17261778
0.51322633 0.5146272 0.007625926 0.53137743 0.26275003 0.39721695 0.028970338 0.63792413
-0.082269 -0.20972666 -0.09417667 0.14348595 -0.35757154 0.05107797 0.35045123 0.12778613
0.015316184 -0.3437326 -0.25289315 0.001183858 0.4657162 0.39336377 -0.128785 -0.50167745
-0.15896425 -0.3922246 -0.24356261 0.018658545 -0.04561043 0.6174453 0.07910809 -0.33390567
-0.012768589 0.42735147 0.07154117 -0.04992076 -0.100143045 0.30961287 -0.16054797 0.07730701
-0.091859244 -0.008013824 0.60362834 0.059356995 -0.11785957 0.028562676 -0.084189504 0.04243495
-0.01376234 0.18790005 0.51040155 0.47004375 0.18215992 -0.2579728 0.7577075 0.09469785
0.30886656 -0.0043730363 -0.32570598 0.6590338 -0.026766228 -0.57020926 0.11850373 0.45334268
0.3899894 -0.073446654 0.08891635 0.028307872 -0.007143396 -0.12219725 0.082713455 1.2041131
-0.02799041 0.045160204 -0.19675162 0.2665267 0.02450371 0.03315386 -0.48766634 0.17528754
0.14592913 -0.09027612 -0.18488166 0.04208043 0.29311505 -0.43147102 0.031785637 -0.99478656
-0.06404399 -0.04363205 0.39646843 0.11190725 -0.124000154 0.4696818 -0.07183667 0.020124499
0.52007616 -0.07372117 0.11631706 0.49504814 0.0017012923 -0.38614893 0.077700414 0.38220283
