ilikepaintings/weights/sidhu/ViT-L-14.pth (torch, 4139 bytes, 1 tensors)

weight f4 [1, 768]
0	0x3f076a00	0.5289612
1	0x3d790af8	0.060801476
2	0x3d011b45	0.031520147
3	0x3ea1929a	0.3155716
4	0x3d9eea9d	0.07759593
5	0xbdde6d0b	-0.10860642
6	0xbf39a730	-0.7252073
7	0xbf2916ac	-0.6605022
8	0xbe48ceea	-0.19610181
9	0x3dee48b8	0.11634964
10	0xbc597144	-0.013271634
11	0x3f39534a	0.72392714
12	0x3e8b114f	0.27161643
13	0x3e96b7c7	0.29437086
14	0xbd012eea	-0.03153888
15	0x3eb23b7c	0.34811008
16	0xbec5bd44	-0.3862096
17	0x3e0e66a9	0.13906349
18	0x3f875358	1.057231
19	0xba92c3f9	-0.001119732
20	0x3dd0dfb6	0.101989195
21	0xbea5155d	-0.3224286
22	0xbec9e90a	-0.39435607
23	0x3eabf599	0.33585814
24	0xbecea8da	-0.403632
25	0xbe98371a	-0.2972954
26	0x3ec9ff8e	0.39452785
27	0x3e14c92d	0.14529867
28	0xbee1d1ec	-0.4410547
29	0xbf10b08d	-0.56519395
30	0x3d25760e	0.04039579
31	0x3d90781c	0.07054159
32	0x3f03fd4e	0.5155839
33	0xbebd17f7	-0.36932346
34	0x3e0f184e	0.13974115
35	0x3e439f38	0.19103706
36	0xbed07b4a	-0.40719062
37	0xbe4974df	-0.19673489
38	0xbe8034d0	-0.25040293
39	0xbd2b7118	-0.0418559
40	0xbe81401e	-0.2524423
41	0x3ea4b3ec	0.3216852
42	0x3dedae46	0.11605506
43	0x3e881111	0.2657552
44	0xbeb88a47	-0.36042997
45	0xbd23a15f	-0.039948817
46	0x3e26c432	0.1628578
47	0x3d1ed0a6	0.0387732
48	0x3c82a304	0.015946873
49	0x3e3b9ff5	0.18322738
50	0xbe15bddb	-0.14623205
51	0xbeacdcd3	-0.33762226
52	0x3ec296b3	0.380056
53	0x3f70e976	0.94106233
54	0x3eb61362	0.35561663
55	0xbecc8024	-0.39941514
56	0x3e82c55d	0.255412
57	0x3f7ca911	0.98695475
58	0xbf051c57	-0.5199637
59	0x3f1a4f72	0.60277474
60	0xbdabf64b	-0.08396586
61	0xbd284b0a	-0.041087188
62	0xbf811c34	-1.0086732
63	0xbe4c984e	-0.19979975
64	0x3f49d55f	0.78841203
65	0xbe363b57	-0.17796074
66	0x3e74f292	0.23920658
67	0x3ca93a58	0.020657703
68	0xbf8a49c7	-1.0803765
69	0xbef6a217	-0.4817054
70	0xbe87bbc5	-0.26510444
71	0x3d39792c	0.045281574
72	0xbd768a3d	-0.060190428
73	0x3bd85a47	0.006602559
74	0xbf101fca	-0.56298506
75	0x3dcdd615	0.100505985
76	0xbe236cd0	-0.15959477
77	0x3e47d4d6	0.19514784
78	0x3f271666	0.6526855
79	0x3e251844	0.16122538
80	0xbf182976	-0.59438264
81	0xbe7b415f	-0.24536656
82	0xbd10f048	-0.0353854
83	0x3ee868ad	0.4539236
84	0x3ec2c6ab	0.38042197
85	0x3f059c93	0.5219204
86	0xbeadb823	-0.33929548
87	0xbe7b0c17	-0.2451633
88	0x3eae2ac0	0.3401699
89	0xbe7fd483	-0.2498341
90	0xbe4e8ba1	-0.20170452
91	0xbd06d23c	-0.03291534
92	0xbf22602b	-0.6342799
93	0x3e4064bb	0.18788426
94	0xbe6399c8	-0.22226632
95	0x3ddb00a5	0.10693482
96	0x3e86e5fd	0.26347342
97	0xbe1249bf	-0.14285944
98	0x3dfd4967	0.12367516
99	0xbf367cda	-0.7128426
100	0xbd06a28f	-0.03286987
101	0x3d84eadd	0.06490109
102	0x3f90f6b8	1.1325293
103	0xbea3cea2	-0.31993586
104	0x3de667c4	0.112502605
105	0x3d70961a	0.058736898
106	0xbf36dd35	-0.71431285
107	0xbd07d847	-0.033165243
108	0xbf332588	-0.69979143
109	0xbe3d8c1a	-0.18510476
110	0x3e79fb47	0.24412261
111	0xbe556fe0	-0.20843458
112	0x3e88f846	0.26751918
113	0xbd4a5882	-0.049400814
114	0x3cd40838	0.025882825
115	0xbf3a8f18	-0.72874594
116	0x3de21bcf	0.1104046
117	0x3e80fb4d	0.25191727
118	0x3f07f083	0.53101367
119	0x3f5f9c1c	0.8734758
120	0xbc9100f7	-0.017700655
121	0xbd2b554d	-0.041829396
122	0x3d362c92	0.0444761
123	0x3ee52a15	0.4475867
124	0xbf12c92b	-0.5733821
125	0x3e9dbfba	0.30810338
126	0x3e96a1a0	0.29420185
127	0x3e6ace9b	0.22930376
128	0xbe37d2bd	-0.17951484
129	0xbe44dea8	-0.19225562
130	0x3ee6c0fe	0.45069116
131	0xbe3e1d6b	-0.1856591
132	0xbec4297b	-0.38312897
133	0x3f76180f	0.9613046
134	0x3f76d655	0.96420795
135	0x3e0fd900	0.14047623
136	0x3ea0ffea	0.31445247
137	0x3e92655d	0.2859296
138	0xbd8a3ac6	-0.067494914
139	0x3d852a1b	0.065021716
140	0xbf0a9873	-0.5413887
141	0x3e90d400	0.28286743
142	0xbe9227b0	-0.28545904
143	0x3daf24c5	0.08551935
144	0xbe8a424d	-0.27003708
145	0xbf12aa18	-0.5729079
146	0x3da4f6b8	0.0805487
147	0x3ee5573c	0.44793117
148	0x3ddb2c11	0.107017644
149	0xbef3a622	-0.47587687
150	0xbe0118d1	-0.12607123
151	0x3e9c93db	0.30581555
152	0x3f643aa5	0.89151984
153	0x3efa26b8	0.48857665
154	0xbea5d22e	-0.32386917
155	0xbe55d0fe	-0.20880505
156	0xbd04b419	-0.032398317
157	0xbe5f2df3	-0.21794872
158	0x3d1693fc	0.036762223
159	0x3ecd4739	0.400934
160	0xbe3af14c	-0.1825611
161	0x3e62f410	0.22163415
162	0xbf32b3ba	-0.6980549
163	0x3e6e5d8a	0.2327787
164	0x3e88be3e	0.26707643
165	0x3f27d015	0.65551883
166	0x3ef10134	0.4707123
167	0x3e58a756	0.21157584
168	0x3f076057	0.5288138
169	0x3ea5d0d6	0.32385892
170	0xbefb952d	-0.4913725
171	0xbd57fe47	-0.052732732
172	0xbef006dc	-0.46880233
173	0xbf68b9df	-0.90908617
174	0x3e85fd1c	0.2616967
175	0x3ec3173d	0.38103667
176	0xbd8c9069	-0.068634816
177	0xbefbf9ef	-0.49214122
178	0xbeb5a650	-0.3547845
179	0xbf5e5ae7	-0.86857456
180	0x3ed2b4fc	0.41153705
181	0xbd5149ca	-0.05109576
182	0x3de9ef1d	0.1142256
183	0xbfa799ad	-1.3093773
184	0xbe5b1fd3	-0.21398859
185	0xbea33e44	-0.31883442
186	0x3ea5bb89	0.3236964
187	0xbf0e3f79	-0.555656
188	0xbe977cff	-0.29587552
189	0x3ec6ee1b	0.38853535
190	0xbcb15336	-0.021646123
191	0x3e7ac244	0.24488169
192	0x3d52ebaf	0.051494297
193	0xbb03a6b7	-0.0020088383
194	0xbec57def	-0.38572642
195	0x3da09970	0.07841766
196	0x3d021092	0.031754084
197	0x3e2392fd	0.1597404
198	0xbe97c463	-0.2964202
199	0xbef72cd8	-0.482764
200	0xbeccc712	-0.3999563
201	0xbe17145c	-0.1475386
202	0xbedb8ca2	-0.42880732
203	0x3d91959e	0.07108615
204	0x3ea12602	0.3147431
205	0x3dd185cb	0.10230597
206	0xbe59c019	-0.21264686
207	0xbf35efdf	-0.7106914
208	0x3e608034	0.21923906
209	0xbef13221	-0.47108558
210	0xbdc4c821	-0.09608484
211	0xbf2f31a2	-0.6843511
212	0xbde63783	-0.11241057
213	0x3e068e97	0.13140331
214	0xbe7ccbec	-0.24687165
215	0x3d18c229	0.03729454
216	0x3d9012df	0.070348494
217	0xbe436415	-0.19081147
218	0xbd665181	-0.056230072
219	0xbecd85e5	-0.40141216
220	0xbe0a741d	-0.13520856
221	0x3f1e0cb1	0.61738116
222	0xbe243d6b	-0.16039054
223	0x3d75506d	0.059891153
224	0xbf0793c8	-0.5295987
225	0x3f2ea040	0.6821327
226	0x3a0c891a	0.0005361006
227	0x3edc92de	0.430808
228	0xbee78fe4	-0.45226967
229	0x3e26716b	0.16254203
230	0x3e99edb8	0.30064178
231	0xbf6a92a8	-0.9163003
232	0x3f2c6d13	0.67353934
233	0xbe69a982	-0.22818568
234	0x3f52da22	0.82364094
235	0xbe57c53a	-0.2107133
236	0xbec4c589	-0.38431957
237	0x3f553a1e	0.83291805
238	0xbeb8dafe	-0.36104578
239	0x3e8dd9bf	0.2770519
240	0x3e03e062	0.12878564
241	0xbd9c88a1	-0.076432474
242	0xbf0a4266	-0.54007566
243	0x3c309212	0.010777013
244	0xbe7a0ac3	-0.24418168
245	0x3eec996d	0.46210805
246	0xbda687aa	-0.081313446
247	0xbebb7803	-0.36615
248	0x3ec52e9d	0.38512126
249	0xbf139e7c	-0.576637
250	0xbecffb05	-0.406212
251	0x3e7d2bfb	0.24723808
252	0xbc4dcd06	-0.012561088
253	0x3e4c143e	0.19929597
254	0x3ec3087c	0.3809241
255	0xbeda8317	-0.4267814
