ilikepaintings/weights/sidhu/ViT-B-32.pth (torch, 3115 bytes, 1 tensors)

weight f4 [1, 512]
0	0xbd9a19b7	-0.07524436
1	0x3f196ff7	0.5993647
2	0xbe068e4e	-0.13140222
3	0xbe371dea	-0.17882505
4	0xbe5ee7d1	-0.21768118
5	0x3d7c134c	0.06154184
6	0xbe885141	-0.26624492
7	0x3e82b9d0	0.2553239
8	0x3ed650b1	0.41858438
9	0x3f0a0687	0.5391621
10	0x3e1a58c1	0.1507292
11	0xbf69f29a	-0.91385806
12	0xbf51c39c	-0.819391
13	0xbe589c45	-0.21153362
14	0xbe22d702	-0.15902331
15	0x3f23ab99	0.6393371
16	0xbe8d671b	-0.27617726
17	0x3eb89336	0.36049813
18	0x3ee384d3	0.44437274
19	0x3f36302c	0.71167254
20	0x3ef05232	0.4693771
21	0xbee27258	-0.44227862
22	0xbdf9b7f8	-0.121932924
23	0x3db95b54	0.090506226
24	0xbf93818a	-1.1523907
25	0xbe1ea3b8	-0.15492141
26	0x3d993ce1	0.07482315
27	0xbe75d936	-0.2400864
28	0xbe0c4a08	-0.13700116
29	0xbef870c4	-0.48523533
30	0xbee1126c	-0.43959367
31	0x3ee5c7f6	0.4487912
32	0x3ed3b603	0.413498
33	0xbe693a88	-0.22776234
34	0x3f6d5383	0.92705554
35	0x3f29f069	0.6638246
36	0xbe9d635c	-0.30739868
37	0x3eca7969	0.39545754
38	0x3ed15666	0.4088623
39	0x3f22ec06	0.63641393
40	0x3ee40008	0.44531274
41	0x3ec96de6	0.39341658
42	0x3e9abe22	0.30223185
43	0xbbdae45e	-0.0066800555
44	0xbe8a5bf5	-0.27023283
45	0x3f951031	1.1645566
46	0x3ef51b95	0.47872606
47	0xbf12a146	-0.57277334
48	0xbe7a021b	-0.24414866
49	0xbed80d4b	-0.42197642
50	0x3ed364e9	0.41287926
51	0x3f6a9116	0.91627634
52	0x3ee13cb7	0.43991634
53	0xbed9bf7f	-0.42528912
54	0x3e4bb1ea	0.19892088
55	0x3f080fae	0.53148925
56	0xbfa9a326	-1.3252914
57	0x3ec76d18	0.3895042
58	0x3e98b87b	0.29828247
59	0x3e67c0a5	0.22632082
60	0xbe9e3966	-0.30903167
61	0x3e4facfc	0.20280832
62	0xbc969087	-0.018379463
63	0x3e478229	0.19483246
64	0x3f00bf79	0.50292164
65	0x3f72fb0e	0.9491433
66	0xbe0fc738	-0.1404084
67	0xbf8bef74	-1.093245
68	0x3e3dd646	0.1853877
69	0x3efd63a3	0.4949008
70	0x3de0fd9c	0.10985872
71	0xbf26c545	-0.6514476
72	0xbeaabf78	-0.33349204
73	0xbead6750	-0.33867884
74	0x3d29bb10	0.041438162
75	0xbe87f233	-0.2655197
76	0x3e8e8c7c	0.27841556
77	0xbd1f4fe6	-0.038894556
78	0x3ced8911	0.028996022
79	0xbec061a7	-0.37574503
80	0x3e4af868	0.19821322
81	0xbcbbb4ee	-0.022913422
82	0xbd927d35	-0.071527876
83	0xbe9afbdb	-0.30270275
84	0x3ee2659b	0.44218144
85	0x3ca4ae20	0.02010256
86	0xbf39fe40	-0.7265358
87	0xbeb9883a	-0.36236745
88	0x3dbf8b05	0.09352688
89	0xbf47c541	-0.7803536
90	0xbecc45c2	-0.3989697
91	0x3eb1063c	0.3457507
92	0xbd9e5b05	-0.07732204
93	0x3c121ae2	0.008917542
94	0x3e663d8d	0.22484417
95	0xbe670d0b	-0.22563569
96	0x3f0132da	0.5046822
97	0xbdb3835a	-0.08765288
98	0x3edb44ee	0.42826027
99	0xbf8ba771	-1.0910474
100	0x3dd13fee	0.10217272
101	0x3e25475a	0.161405
102	0xbf3d49d8	-0.739408
103	0x3f157f14	0.5839703
104	0xbe99368e	-0.29924434
105	0xbf118c6f	-0.5685491
106	0x3fa659b8	1.299613
107	0xbebeb94f	-0.37250754
108	0x3ed59460	0.41714764
109	0x3dadd9bd	0.08488796
110	0xbebdd306	-0.3707506
111	0xbdc6384f	-0.09678709
112	0x3ed9632d	0.42458478
113	0xbee0ad22	-0.4388209
114	0x3f1b120e	0.60574424
115	0x3e8788da	0.26471597
116	0xbe206ee7	-0.15667306
117	0xbe159094	-0.14605933
118	0xbf4c386c	-0.7977359
119	0x3e979a58	0.29609942
120	0x3e96df4a	0.2946723
121	0x3f833d3d	1.0253063
122	0xbca2c705	-0.01987029
123	0xbd2a8133	-0.04162712
124	0x3e006be2	0.12541154
125	0x3e0c3491	0.13691927
126	0x3ecf0f79	0.40441492
127	0x3f5f2769	0.8716951
128	0xbe13c200	-0.14429474
129	0xbf590902	-0.8477937
130	0xbe60927f	-0.21930884
131	0x3f099898	0.53748465
132	0xbd8d5fa2	-0.06903006
133	0x3d03ca87	0.032175567
134	0x3eb06747	0.34453794
135	0x3d2d6246	0.04233005
136	0x3bcdf885	0.0062857294
137	0x3d1f2b28	0.038859516
138	0xbed1e0dd	-0.4099187
139	0xbe40882f	-0.1880195
140	0x3ee9f4e1	0.4569464
141	0xbeea313e	-0.45740694
142	0x3f30d704	0.6907809
143	0x3ca05232	0.019570444
144	0x3e7e35c7	0.24825202
145	0xbd920be6	-0.07131176
146	0xbf000954	-0.50014234
147	0x3ebba485	0.36648956
148	0x3e1f5b2d	0.15562125
149	0x3ea63ebd	0.3246974
150	0x3ebd84aa	0.37015277
151	0xbf10b2b6	-0.5652269
152	0xbeade20e	-0.3396153
153	0xbf39ddba	-0.7260395
154	0x3dc4b13e	0.09604119
155	0xbed9aa6d	-0.42512837
156	0x3ecad391	0.39614537
157	0xbf2c633e	-0.6733893
158	0x3d7dea9a	0.06199131
159	0x3eddc77c	0.43316257
160	0x3ea0a09b	0.31372532
161	0xbee1dc1e	-0.4411325
162	0xbb13f385	-0.002257557
163	0x3f8474d4	1.0348153
164	0x3e881d97	0.26585075
165	0xbdd6b9d7	-0.10484665
166	0xbeecc833	-0.4624649
167	0x3e1b3541	0.15157034
168	0x3f46c56e	0.77645004
169	0xbd9481ff	-0.07251357
170	0x3edfd8c8	0.43720078
171	0xbec8216b	-0.39087996
172	0xbf246091	-0.6420985
173	0x3e72ea7f	0.23722266
174	0x3e45e469	0.19325413
175	0x3e885cf1	0.2663341
176	0xc0090535	-2.1409428
177	0x3f119c5f	0.5687923
178	0xbf730102	-0.9492341
179	0xbec3def1	-0.38256028
180	0xbddfd546	-0.109293506
181	0x3e0782fa	0.13233557
182	0xbcf7ec9b	-0.03026419
183	0xbef88cfc	-0.48545063
184	0xbf05d822	-0.5228292
185	0xbeb54547	-0.35404417
186	0xbf1a15d7	-0.60189575
187	0x3ee28981	0.44245532
188	0x3da2e3e5	0.07953624
189	0x3cc4bca2	0.024015728
190	0xbe9da513	-0.30790004
191	0x3eec67d9	0.4617298
192	0xbf061b5b	-0.5238549
193	0xbde1ce47	-0.110256724
194	0xbe19252c	-0.14955586
195	0xbf4e20b4	-0.8051865
196	0x3f7f33fb	0.9968869
197	0xbed46ae9	-0.41487816
198	0x3f8c6b57	1.0970258
199	0x3f7e4848	0.9932904
200	0xbf4ba4f3	-0.7954857
201	0xbe9fb640	-0.31193733
202	0xbe73a564	-0.2379356
203	0x3e3b40c6	0.18286428
204	0x3e16a02e	0.14709541
205	0x3ece30f4	0.40271723
206	0x3f3f5faa	0.74755347
207	0xbde77bb5	-0.11302892
208	0x3f2eef3c	0.6833379
209	0x3eedcc6f	0.46445033
210	0x3f5b4e93	0.8566677
211	0x3d88e445	0.06684164
212	0xbf6c9797	-0.9241881
213	0x3e9fabed	0.31185856
214	0xbf7ee2ee	-0.9956502
215	0xbf125d70	-0.57173824
216	0xbcdfb80a	-0.027309436
217	0xbea58d05	-0.32334152
218	0xbf235e09	-0.6381536
219	0x3edc0424	0.4297191
220	0x3effb2e8	0.49941182
221	0xbf308f5a	-0.6896874
222	0xbf119678	-0.5687022
223	0xbf528dd4	-0.8224766
224	0x3dfc0886	0.12306313
225	0xbd8690d3	-0.06570592
226	0xbe9b8bfd	-0.3038024
227	0xbf55daa5	-0.8353675
228	0x3ebc26f1	0.3674846
229	0xbf4cbbf1	-0.79974276
230	0x3ee4f95d	0.447215
231	0x3e762d01	0.24040605
232	0xbea40793	-0.3203703
233	0x3ecfef47	0.40612242
234	0xbeaa072b	-0.33208594
235	0x3e8bc40b	0.27298006
236	0xbea7454f	-0.32670066
237	0x3e2f3623	0.17110495
238	0x3dd90b52	0.10597862
239	0xbdbe2a83	-0.09285452
240	0x3f42d509	0.76106316
241	0xbf4c5368	-0.7981477
242	0xbdd981b8	-0.10620445
243	0x3e06d3ed	0.13166781
244	0xbe56552c	-0.20930928
245	0xbe243dad	-0.16039152
246	0xbcb375af	-0.021906702
247	0xbd53ae80	-0.051680088
248	0xbf2404c5	-0.6406978
249	0x3e5a6d79	0.21330823
250	0x3f00f617	0.50375503
251	0xbe87e7ad	-0.26543942
252	0xbf1aa3c2	-0.60406125
253	0x3d1366cc	0.035986707
254	0x3eb1fc38	0.3476274
255	0x3ef12321	0.47097114
