ilikepaintings/weights/sidhu/ViT-L-14@336px.pth (torch, 4163 bytes, 1 tensors)

weight f4 [1, 768]
0.8060922 -0.35662264 0.30202967 0.1592153 0.0028392412 -0.5358287 -0.82905585 -0.5470492
0.05901951 -0.09483807 -0.09392536 0.87914574 0.20242926 0.13639475 -0.043163497 0.9280748
-0.45896417 -0.3028719 1.4139308 0.4275807 0.10098224 0.15954004 -0.27959728 0.21272995
-0.48389176 0.046712592 0.48595184 1.0561749 -0.9567302 -0.5998151 0.19366923 -0.42547005
0.34737536 -0.1945185 -0.28355867 0.49018922 -0.8485101 -0.52800953 -0.3884883 0.1765456
0.0122694215 0.3477792 0.7521054 0.020036152 -0.28222895 0.45118913 0.18389216 0.18812461
-0.09432154 0.14442912 -0.14176948 -0.86932904 0.76226705 0.8714503 0.7442856 -0.5862991
0.3087097 0.90690154 -0.3589703 0.6695328 -0.04623938 -0.06990664 -0.97749704 -0.033916924
1.2192217 -0.19201699 0.18038058 -0.06227937 -0.85086864 0.0110559445 -0.31167418 0.23265012
0.048142835 0.53624064 -1.2048517 -0.25759816 -0.16194235 0.38797042 0.62071514 0.34130692
-0.6834462 -0.87734395 0.160985 0.629156 0.79792374 0.6140999 -0.11318191 -0.29676938
0.8017027 -0.5122227 -0.4277222 -0.3693757 -0.65421957 0.28622976 -0.30125922 -0.38122267
0.057982188 0.4767648 0.33837268 -1.1275243 0.20293202 -0.46104285 1.4248022 -0.4053227
0.31654218 0.2640948 -0.61576897 0.10899686 -0.5252168 -0.61491036 0.31640097 -0.39624998
0.26464924 0.4777525 -0.15965922 -0.74035066 -0.4471567 0.12962553 0.50875634 1.7914279
-0.28772053 0.18527873 0.34690556 0.12625188 -1.1448836 0.23650874 0.31205896 -0.010499325
-0.17445233 0.28007966 -0.06290482 0.23392297 -0.5453151 1.077827 1.0351609 -0.038917817
0.13702878 0.09513812 -0.15318942 -0.48589742 -0.77067006 1.0817587 -0.46586335 -0.38953733
-0.3727862 -0.87408733 0.116563685 0.73968583 0.4308612 -0.29172784 0.019552542 -0.014646008
1.1032913 0.029053044 -0.17114678 -0.15782817 -0.072672375 -0.280045 0.19371787 0.0024753166
0.18199182 0.5424087 -0.94574183 0.07172609 0.05270833 0.699531 0.64490056 0.062879056
0.7882583 0.8171876 -0.71620375 -0.68987787 -0.7120615 -1.269865 0.34674087 1.2275748
-0.52341974 -0.51431 -0.23511706 -0.90513974 -0.1795092 -0.15767233 0.08884215 -2.2289834
-0.39878902 -0.20348361 0.7925709 -0.3319586 -0.20575202 0.67221063 0.0075163487 0.71856046
0.16766796 -0.24414925 -0.56773955 -0.008667432 -0.23448427 -0.21931764 -0.41452658 -0.47655532
-0.31651598 -0.21741502 -0.9012973 -0.19068332 0.74324113 0.16506399 0.20928937 -1.0242912
0.8204266 -1.1894227 -0.3396046 -0.81191754 0.42075315 0.48627877 -0.37233764 -0.024561638
-0.91434234 0.04930628 0.053912047 -1.1866039 -0.4383285 0.75220364 -0.2587248 0.1817611
-0.31474003 1.1808751 -0.2707517 0.46380135 -0.28903648 0.6587758 0.22538142 -0.52335024
1.1470714 -0.364728 0.70198625 -0.21105492 -0.46113613 0.61361086 -0.7122965 1.0302325
0.39435893 -0.017196706 -0.6334512 -0.32284096 -0.061852727 0.36695075 -0.4561245 -0.40532368
0.47002703 -0.7927571 -0.93307227 0.37212348 -0.326524 -0.22310455 0.8199297 -0.5767692
00000000: 0f5c 4e3f 3e97 b6be a2a3 9a3e 5609 233e
00000010: 9012 3a3b 122c 09bf 013d 54bf 6b0b 0cbf
00000020: 71be 713d 763a c2bd f05b c0bd b20f 613f
00000030: 9e49 4f3e 11ab 0b3e 35cc 30bd 4f96 6d3f
00000040: 5afd eabe 0712 9bbe affb b43f dceb da3e
00000050: c7cf ce3d 775e 233e 6027 8fbe e1d5 593e
00000060: a9c0 f7be b455 3f3d aece f83e bd30 873f
00000070: 45ec 74bf 7b8d 19bf 3a51 463e 36d7 d9be
00000080: 2fdb b13e dc2f 47be 9a2e 91be 15fa fa3e
00000090: f537 59bf a22b 07bf f0e7 c6be 5fc8 343e
000000a0: af05 493c 1e10 b23e fb89 403f db22 a43c
000000b0: 5080 90be 4302 e73e 3a4e 3c3e bda3 403e
000000c0: a72b c1bd 3ae5 133e 052c 11be 598c 5ebf
000000d0: ef23 433f 5e17 5f3f 8089 3e3f b317 16bf
000000e0: 330f 9e3e b32a 683f f5ca b7be 8066 2b3f
000000f0: 8165 3dbd 362b 8fbd 3f3d 7abf 79ec 0abd
00000100: 750f 9c3f 1aa0 44be b0b5 383e a718 7fbd
00000110: 87d2 59bf fe23 353c c293 9fbe d53b 6e3e
00000120: 6c31 453d 1147 093f 9538 9abf e8e3 83be
00000130: 37d4 25be 0fa4 c63e 30e7 1e3f c8bf ae3e
00000140: 55f6 2ebf 9d99 60bf 40d9 243e 5e10 213f
00000150: bb44 4c3f a735 1d3f ebcb e7bd 28f2 97be
00000160: 633c 4d3f 0721 03bf 67fe dabe d01e bdbe
00000170: ef7a 27bf b58c 923e a63e 9abe 9e2f c3be
00000180: bb7e 6d3d 841a f43e 2f3f ad3e b752 90bf
00000190: 69cd 4f3e cf0d ecbe eb5f b63f 7586 cfbe
000001a0: d111 a23e 6f37 873e 09a3 1dbf bf39 df3d
000001b0: 9c74 06bf c46a 1dbf 4fff a13e 47e1 cabe
000001c0: 1b80 873e fa9b f43e b57d 23be 9f87 3dbf
000001d0: b9f1 e4be 8ebc 043e db3d 023f 824d e53f
000001e0: 1b50 93be b5b9 3d3e 9b9d b13e 2c48 013e
000001f0: 8c8b 92bf 592f 723e 31c6 9f3e 5c05 2cbc
00000200: a2a3 32be 9a66 8f3e 3ed4 80bd 8189 6f3e
00000210: c599 0bbf 3cf6 893f 2780 843f 4a68 1fbd
00000220: 4651 0c3e c6d7 c23d b0dd 1cbe 8cc7 f8be
00000230: a24a 45bf 1277 8a3f a485 eebe 7071 c7be
00000240: d5dd bebe 30c4 5fbf f1b8 ee3d 0d5c 3d3f
00000250: d799 dc3e 5a5d 95be a72c a03c cff5 6fbc
00000260: a638 8d3f a600 ee3c 1a41 2fbe b59d 21be
00000270: 41d5 94bd 0f62 8fbe fa5d 463e ec38 223b
00000280: 105c 3a3e 4cdb 0a3f 231c 72bf 21e5 923d
00000290: b1e4 573d 7714 333f 3418 253f bcc6 803d
000002a0: 4ccb 493f 3533 513f 2159 37bf d69b 30bf
000002b0: aa49 36bf f08a a2bf 0588 b13e 2c21 9d3f
000002c0: d6fe 05bf d2a9 03bf 87c2 70be 3db7 67bf
000002d0: 42d1 37be db74 21be e0f2 b53d aaa7 0ec0
000002e0: 132e ccbe 025e 50be ede5 4a3f 7af6 a9be
000002f0: a8b0 52be ff15 2c3f b44b f63b 94f3 373f
00000300: 26b1 2b3e 4302 7abe 6157 11bf d801 0ebc
00000310: a51c 70be ce94 60be d43c d4be 0fff f3be
00000320: 620e a2be 0ba2 5ebe 6bbb 66bf 7d42 43be
00000330: 0d45 3e3f 8906 293e f44f 563e f91b 83bf
00000340: 7a07 523f 013f 98bf a7e0 adbe d4d9 4fbf
00000350: f56c d73e 88f9 f83e 0aa3 bebe 7d35 c9bc
00000360: 5712 6abf 62f5 493d e1d2 5c3d a3e2 97bf
00000370: 986c e0be 6b90 403f 9477 84be 951f 3a3e
00000380: 9b25 a1be ea26 973f f89f 8abe 5f77 ed3e
00000390: 97fc 93be 88a5 283f 63ca 663e 48fa 05bf
000003a0: 3cd3 923f a1bd babe 5fb5 333f c81e 58be
000003b0: 091a ecbe 9a15 1d3f 1059 36bf a9de 833f
000003c0: 6ae9 c93e 1be0 8cbc dc29 22bf 694b a5be
000003d0: 4959 7dbd f8e0 bb3e 2789 e9be 9686 cfbe
000003e0: 62a7 f03e 21f2 4abf d3dd 6ebf f886 be3e
000003f0: 272e a7be 8575 64be eae6 513f 25a7 13bf
