ilikepaintings/weights/sidhu/ViT-B-16.pth (torch, 3115 bytes, 1 tensors)

weight f4 [1, 512]
00000000: 935b 60be 0a2a 64bf fc07 323d 2e00 893e
00000010: 2375 44bf 60f2 85be c336 29bf 0d41 503f
00000020: e5af 0dbc 300b e4be b414 18bf c572 573f
00000030: 23f4 373f 8079 673e a479 4fbf cc7e 813e
00000040: c021 8cbf 25a6 b73e 52a5 20bf 3ba8 f8be
00000050: d105 f73e d070 833e 84e3 6c3f ec59 b0ba
00000060: 1d64 a9bd 4cb6 153f 30f9 243f c602 6ebe
00000070: f230 723f f9c5 33bf 734a 0dbf 6f07 d33e
00000080: b9ec 023f f877 863e c3f7 223e 9ac4 bbbe
00000090: 036b 253e 984e 963e 12af 8abe 27bb 61be
000000a0: c5ec 09bf 2082 febe 5a5d dabd 7ab7 233f
000000b0: 3eac 3c3f 63c7 23bf 44d8 80be a339 87bd
000000c0: 9794 84be 3042 883b bbc5 333f 0023 d3be
000000d0: f2a2 7ebe 2838 463e 413b 6abf 567b 923e
000000e0: 7495 dd3d eb7f 2abe a7cf e7be 8f7f 52bf
000000f0: 426b cfbf 06e6 eebe ad40 b6bd bbbc be3e
00000100: 7c75 65be 5426 53be b6a8 9c3d 2862 3fbe
00000110: 5793 17be 920d f1be a45b bd3c 22b2 9ebd
00000120: 48a3 bb3e 0a98 c33e fa26 c53e 3999 3b3e
00000130: 4c1e c03d 4659 503f 8da6 84be 465d 00bf
00000140: 1fc8 a13e 11b4 1b3a d2f8 ccbe 45d5 1e3f
00000150: 225a d03e e9aa f23d 7a0e 1bbe 2f8b 353f
00000160: f376 f13e 8e97 e1bd 7800 fabc 98c7 10be
00000170: fb68 8bbf 23f5 8cbf 1dac 343e 99f2 babe
00000180: 64f5 71be 7599 cbbf d742 2bbe 241a 823e
00000190: bdd3 1abe 28fa c43d 38bb 663e 5307 823f
000001a0: f69c 53be 3ac8 c63d 5460 d8be 629b 223f
000001b0: c40c ee3e 53bf 203f 6a09 fe3c 0cb8 70be
000001c0: 47fa 0d3e 54dc 8bbf 8254 bbbd 2561 e9be
000001d0: c50d d2be 12d3 05be daf6 5e3c 939a 48bf
000001e0: b88f 87bd d475 3bbf 2a85 04bd aa07 363c
000001f0: a893 2bbf 90a3 723e 45e7 913d da43 773e
00000200: ae7c 85bd df2e d33d b61e f5bd 6277 02bf
00000210: 9eef 2f3f 3645 8b3e 1e55 6d3e 3cc9 893e
00000220: bd30 b2be 0d92 21bf 86e7 ed3e 8e7f 1d3e
00000230: dddc 63be 171e 03bf 9e43 f13e 91c1 96be
00000240: 9680 ee3e 5208 f7bc 5709 c33e 19b2 a53e
00000250: 8d71 203f b579 5bbf 80bf be3f 63b0 57bf
00000260: db7b 2fbd fd79 413e 9f21 393e e35a b0be
00000270: 8e9b 093f d3b9 aabf bf8d 7d3f 77e6 4dbd
00000280: 2bd0 17bd f8e4 7f3e 2152 15be c980 93bf
00000290: 80aa 0f3d cd5d 83be f19e 8bbe d6c4 aabe
000002a0: 1de8 523f 3512 8dbe fc68 01bf 258f 1d3f
000002b0: b511 c8be bd4d a6be 2ebd 213f 4275 113f
000002c0: d840 96be c389 5bbe c278 e13e 00d5 063d
000002d0: 8112 69bf 55ae 69bd aa13 c63e 96ae fe3e
000002e0: 56e1 c93e a6eb 0c3e a329 8bbe 9f9d 313f
000002f0: f526 593f 1058 4bbf 78f9 52be cc61 02bf
00000300: 6c60 54bd b1d8 973e a508 ee3e ab13 2bbe
00000310: 6f18 0abd 714d b53e adf4 ad3e a777 5cbe
00000320: fa08 e93e c0d4 763e 11f6 623f 1f0b c6be
00000330: 1f43 1fbd a52b 05bd c1c1 0dbe ebf5 00be
00000340: 6c82 29be e203 45be 1031 48bf 5456 84bf
00000350: bdd3 89be 6fdd 583f dac4 5bbe fed9 21bf
00000360: 8fc0 813e f67a 08bd eca7 edbe a7c6 873e
00000370: be42 8bbe 4356 b4bc 1840 913e 0331 703f
00000380: 8be0 02bf 0979 493e 24f7 6cbe 0c32 febe
00000390: b587 b6bf 16ce 013f d832 01be 7f37 9cbd
000003a0: 4fd1 6abd c925 eb3e e81d 983e a9cf 1fbf
000003b0: 0267 253e fa38 953e 5ad2 c9bd 8cce 283f
000003c0: 4ff8 71be 04b3 213e ad91 c2be 8b79 2d3e
000003d0: 1bf0 383f 2d88 9fbe b68a 673e 549c 193f
000003e0: 5e39 503e 8280 e7be dc4d 97be 0990 8d3f
000003f0: 1058 a13e d5d0 d0be a70b 52bf ddeb 3b3f
-0.21909933 -0.89126647 0.043464646 0.2675795 -0.76741236 -0.2616148 -0.66099185 0.8134926
-0.008647894 -0.44539785 -0.5940659 0.841595 0.718569 0.22604942 -0.81044984 0.2529205
-1.09478 0.35868946 -0.6275226 -0.4856585 0.48246625 0.25672007 0.9253466 -0.0013454533
-0.08271048 0.5848129 0.6444273 -0.23243245 0.94605935 -0.7022396 -0.55191725 0.4121661
0.5114246 0.26263404 0.15914826 -0.36673433 0.16154103 0.29356837 -0.27086693 -0.22044049
-0.53876907 -0.49708652 -0.10662337 0.6395184 0.7370032 -0.63976115 -0.25164998 -0.0660279
-0.25894615 0.004158281 0.7022359 -0.4123764 -0.24866846 0.1935736 -0.91496664 0.28609723
0.108195215 -0.1665036 -0.45275614 -0.8222589 -1.6204607 -0.4665987 -0.08899055 0.37253365
-0.22408098 -0.2062009 0.076493666 -0.18689787 -0.148023 -0.47080666 0.023114987 -0.0774882
0.3664801 0.38201934 0.385063 0.18320169 0.09380779 0.8138622 -0.25908318 -0.50142324
0.31597993 0.0005939613 -0.40033585 0.62044173 0.40693766 0.11849005 -0.15142241 0.709155
0.47161064 -0.11015235 -0.030517802 -0.14138639 -1.0891412 -1.101231 0.17643781 -0.36513212
-0.23628765 -1.5906206 -0.16724716 0.2541057 -0.15119834 0.09618026 0.22532356 1.0158485
-0.20665345 0.09706159 -0.42260993 0.63518345 0.46494114 0.6279194 0.031010348 -0.23507708
0.13865004 -1.0926614 -0.09146978 -0.45581928 -0.4102613 -0.13068798 0.013608659 -0.7836086
-0.06619209 -0.73226666 -0.032353558 0.011110226 -0.6702218 0.23695207 0.07124189 0.24146977
-0.065179214 0.10311674 -0.11968748 -0.50963414 0.68725 0.2720124 0.23177001 0.26911342
-0.3480281 -0.6311348 0.464657 0.1538069 -0.22252221 -0.5121779 0.471219 -0.29444554
0.46582478 -0.030155335 0.38093063 0.3236244 0.62673265 -0.85732585 1.4902191 -0.8425352
-0.042842727 0.18894191 0.18079232 -0.3444434 0.5375298 -1.3337959 0.9904441 -0.050268617
-0.03706376 0.24989688 -0.14582111 -1.1523677 0.03507471 -0.25657502 -0.272697 -0.333533
0.82385427 -0.27552953 -0.5055082 0.61546546 -0.3907601 -0.32481185 0.6317929 0.56819546
-0.29346347 -0.2143927 0.44037443 0.032917976 -0.9104386 -0.05705102 0.38686877 0.49742573
0.3942973 0.13761768 -0.27180204 0.69381136 0.8482507 -0.7943125 -0.20602977 -0.50930476
-0.051849768 0.2965751 0.4649097 -0.16706721 -0.033714708 0.35410646 0.33975735 -0.21530019
0.4551466 0.24104595 0.8865672 -0.3868036 -0.03888237 -0.032512326 -0.13843442 -0.1259381
-0.16553658 -0.19239762 -0.78199863 -1.0338845 -0.26919356 0.8471288 -0.21461812 -0.63223255
0.25342223 -0.03332039 -0.46417177 0.26518747 -0.27199358 -0.022013789 0.28369212 0.93824786
-0.51123875 0.19675077 -0.23141152 -0.49647558 -1.4260164 0.5070509 -0.12617052 -0.076277725
-0.05732852 0.45927265 0.29710317 -0.6242624 0.16152576 0.29145032 -0.098545745 0.65940166
-0.23629878 0.15790945 -0.38001767 0.16940896 0.7224137 -0.3115858 0.22611508 0.6000416
0.20334384 -0.4521523 -0.2955159 1.1059581 0.315125 -0.40784326 -0.8204903 0.73406774
